src/gantry_crane_controller/pinn_models/Model 8 input 100 param dHa ass FIX nop jit.pt (torch, 103233 bytes, 8 tensors)

weight f4 [100, 8]
0.62938714 -0.05001608 0.2985741 -0.14487499 -0.02008656 -0.037685197 -0.41121984 -0.49483675
0.27612305 -0.044613276 0.33557943 0.3177128 0.064822204 0.013102863 0.1607533 0.5315168
0.55663574 0.13807556 0.76343554 -0.023098366 -0.11004395 -0.028017716 -0.32045728 -0.08931788
-0.07418779 -0.13311099 1.3379298 -0.017548246 0.021526478 0.037197858 -0.083833486 0.039437704
-0.26480198 0.007611692 0.91705483 0.607328 -0.17944512 0.17991851 0.033414945 0.7601712
0.21858431 0.00732102 1.1462872 0.34071493 0.11406069 -0.037457597 -0.11756239 0.20690277
0.11193223 0.16131127 -0.60449356 0.09457962 0.15550356 0.26953578 0.050602447 -0.024857815
0.6468204 -0.17778797 -0.012968829 -0.26761615 0.042759158 0.15429142 0.23898602 -0.34901866
0.036333088 0.08856423 -0.9231464 0.21919288 -0.06318182 -0.06517673 0.16084327 0.45546454
0.20838994 -0.124400645 -1.2436274 -0.154828 0.040920533 -0.1216448 0.054723047 0.10638331
0.06790613 0.0018208356 -0.05446831 -0.4859225 0.05766971 -0.1887735 0.34591976 0.30569068
-0.41500306 0.00262896 1.0012596 0.3782467 -0.12223506 -0.04411428 0.21741521 0.12148405
-0.16748595 0.041861847 1.191127 -0.20075661 0.030556308 -0.026803395 -0.24383092 0.45951614
-0.038782418 -0.056102466 -0.78996074 0.4743827 -0.13988517 0.004205075 -0.11469358 -0.32292032
-0.1947951 0.24024215 0.8887495 0.0752066 -0.053287562 -0.043142382 0.16893858 -0.23991024
-0.1453481 0.08165206 0.49797687 -0.3315154 -0.11421034 -0.06067221 0.032742403 0.92668134
-0.47247484 -0.06409722 -0.54011804 -0.12437716 -0.12635596 -0.071619704 -0.0892547 -0.14873357
-0.5336428 0.04872521 -0.3853309 0.060826074 -0.07555237 0.06290206 -0.1561449 0.12056568
0.03201454 0.07699033 -1.1539013 -0.025862223 0.021890799 -0.08843288 -0.05862897 0.17677332
0.07627166 -0.33048433 -0.41206113 -0.0041899015 0.012565262 -0.07020033 -0.26420602 -0.7725134
0.16511868 -0.2690973 -0.8797086 0.00082566176 -0.061085332 0.0006100073 0.1635606 -0.24115057
-0.450341 -0.039249532 0.8809271 0.57573885 -0.21829316 -0.13211048 -0.0024776 0.07708914
-0.106574446 0.038707126 0.6786248 -0.115976594 0.26418614 -2.0478295e-05 0.05604874 0.4314075
1.0422766 0.019192595 0.59448195 0.45957467 -0.084777705 0.06356062 0.15249605 -0.20271146
0.22377896 0.0007627057 1.32328 -0.25168216 -0.13791727 -0.13485876 0.20826524 0.12411061
0.14819658 0.19151072 -0.97504723 -0.20071226 -0.27816638 0.2140881 -0.38122773 0.027314406
0.030264983 -0.038210433 -1.110123 0.28334755 -0.06887069 0.059901357 -0.116243936 -0.106016584
0.35489413 -0.1812323 -0.113203764 0.055349838 -0.0059099537 -0.043080896 -0.5784345 -0.8932172
-0.6055611 0.103775196 -0.6879456 -0.07163498 0.014950742 -0.017584797 0.078467704 0.6069236
-0.064434454 0.07131495 -0.42013767 -0.90301925 -0.03059761 -0.009099673 -0.0715263 0.32912993
0.588674 0.03477328 -0.44240597 -0.07649629 -0.051205024 0.064551674 0.08711934 -0.047869373
0.20106986 -0.052405726 -1.1709728 -0.04767996 -0.033651613 -0.008183615 -0.37146258 0.31893182
00000000: 841f 213f a9dd 4cbd b4de 983e 1c5a 14be
00000010: 928c a4bc cb5b 1abd 688b d2be 3e5b fdbe
00000020: 0060 8d3e 69bc 36bd 11d1 ab3e 41ab a23e
00000030: 81c1 843d 64ad 563c 839c 243e 7c11 083f
00000040: ae7f 0e3f ae63 0d3e 8370 433f c938 bdbc
00000050: b95e e1bd 6985 e5bc fa12 a4be 4bec b6bd
00000060: c5ef 97bd 3f4e 08be 4941 ab3f 57c1 8fbc
00000070: 4c58 b03c c85c 183d e4b0 abbd 6e89 213d
00000080: 2094 87be 806b f93b 1bc4 6a3f d979 1b3f
00000090: 76c0 37be 8f3c 383e 1cde 083d 949a 423f
000000a0: 91d4 5f3e 2be5 ef3b 8ab9 923f 3072 ae3e
000000b0: a798 e93d 236d 19bd 8dc4 f0bd 52de 533e
000000c0: ba3c e53d c82e 253e 17c0 1abf f6b2 c13d
000000d0: 533c 1f3e 9800 8a3e 8344 4f3d 9ea2 cbbc
000000e0: 0696 253f 0d0e 36be 367b 54bc fc04 89be
000000f0: 3a24 2f3d 92fe 1d3e c0b8 743e 93b2 b2be
00000100: 01d2 143d 2a61 b53d 5353 6cbf 1974 603e
00000110: 7865 81bd 617b 85bd 19b4 243e a632 e93e
00000120: 2c64 553e c4c5 febd 2f2f 9fbf 3b8b 1ebe
00000130: 4a9c 273d e920 f9bd 4625 603d 7edf d93d
00000140: 5e12 8b3d 1ba9 ee3a 2a1a 5fbd d5ca f8be
00000150: 1337 6c3d d74d 41be 651c b13e 7d83 9c3e
00000160: 487b d4be a14a 2c3b 4629 803f 8da9 c13e
00000170: 6056 fabd 2db1 34bd 18a2 5e3e a1cc f83d
00000180: 7081 2bbe 5477 2b3d d976 983f 2493 4dbe
00000190: 3951 fa3c cb92 dbbc d0ae 79be b345 eb3e
000001a0: 50da 1ebd b3cb 65bd de3a 4abf 4ae2 f23e
000001b0: 0f3e 0fbe baca 893b 78e4 eabd d055 a5be
000001c0: 5e78 47be 0a02 763e 1685 633f eb05 9a3d
000001d0: 0f44 5abd 11b6 30bd 3cfe 2c3e 08ab 75be
000001e0: 22d6 14be 3239 a73d d3f6 fe3e 63bc a9be
000001f0: 1ce7 e9bd 6c83 78bd e61c 063d fd3a 6d3f
00000200: 39e8 f1be 6745 83bd 2d45 0abf 74b9 febd
00000210: 7563 01be 5aad 92bd 2bcb b6bd 9d4d 18be
00000220: d19c 08bf 1694 473d 174a c5be c324 793d
00000230: 33bb 9abd ccd2 803d 73e4 1fbe 24eb f63d
00000240: ae21 033d 1bad 9d3d 0ab3 93bf 03dd d3bc
00000250: 5554 b33c 4c1c b5bd ee24 70bd 1104 353e
00000260: 5134 9c3d 3e35 a9be adf9 d2be 714b 89bb
00000270: 87de 4d3c 31c5 8fbd 0346 87be 70c3 45bf
00000280: df14 293e 1fc7 89be 9534 61bf 3971 583a
00000290: 9d34 7abd e6e8 1f3a 6e7c 273e 2df0 76be
000002a0: 1893 e6be 1ec4 20bd 7084 613f 9f63 133f
000002b0: 3e88 5fbe f847 07be 3b5f 22bb e9e0 9d3d
000002c0: b443 dabd 5d8b 1e3d 5bba 2d3f 2385 edbd
000002d0: 6843 873e cec8 abb7 5d93 653d 72e1 dc3e
000002e0: 5269 853f ca39 9d3c f82f 183f 5f4d eb3e
000002f0: ef9f adbd 122c 823d ed27 1c3e 9893 4fbe
00000300: 5026 653e 50f0 473a 3d61 a93f 7cdc 80be
00000310: 2f3a 0dbe 6a18 0abe 7c43 553e b42d fe3d
00000320: d8c0 173e 631b 443e b29c 79bf 8487 4dbe
00000330: d36b 8ebe e939 5b3e 4830 c3be 76c2 df3c
00000340: 45ee f73c 8b82 1cbd 8318 8ebf ee12 913e
00000350: 140c 8dbd 205b 753d 4d11 eebd 391f d9bd
00000360: afb4 b53e f694 39be 60d7 e7bd 83b6 623d
00000370: 49a8 c1bb 9875 30bd 4914 14bf e2a9 64bf
00000380: 0d06 1bbf 1788 d43d 341d 30bf 5cb5 92bd
00000390: f5f3 743c fe0d 90bc adb3 a03d 585f 1b3f
000003a0: 36f6 83bd 930d 923d 491c d7be 452c 67bf
000003b0: d7a7 fabc cb16 15bc 617c 92bd b883 a83e
000003c0: 57b3 163f 6d6e 0e3d 0983 e2be 16aa 9cbd
000003d0: 5cbc 51bd ab33 843d a06b b23d ad12 44bd
000003e0: 42e5 4d3e 63a7 56bd 70e2 95bf 104c 43bd
000003f0: 46d6 09bd 9214 06bc 5830 bebe 084b a33e

bias f4 [100]
-0.34155858 0.36645707 -0.437728 0.35426855 0.11868456 0.39582938 0.67437047 0.04456796
-0.5290244 -0.18247652 0.26112685 0.60033846 0.11112218 -0.5064958 -0.4596438 0.5018667
0.46172726 0.404638 -0.039409224 -0.19195662 0.28981206 0.76365775 0.4765834 0.16124576
-0.052629944 0.019357365 -0.16465305 -0.3975543 0.04196154 0.78701377 0.42844686 0.3385636
-0.25716808 -0.32470104 0.15279339 0.36758974 -0.35851347 0.021879023 0.13444255 0.35140154
0.21304907 -0.22137497 -0.53537905 -0.32638174 0.2236331 -0.54499936 0.30634117 0.5019915
0.2935567 0.44803342 0.56764513 0.31840894 0.39005086 0.100861765 -0.017649362 -0.54464835
-0.2213837 -0.057505526 -0.55361956 -0.7082704 -0.26610953 0.3951033 0.0851967 -0.09580149
-0.06777057 0.5056959 -0.45370975 -0.16212672 -0.21906003 0.6036171 -0.30919132 0.109897
-0.55377454 0.5329757 -0.56899095 0.13661359 -0.14943095 -0.45664656 -0.5815348 -0.4604962
-0.5250708 -0.43570885 -0.0053170384 0.2600702 0.36963022 -0.5464968 0.41180855 -0.026234943
0.1623756 0.8984296 -0.06889105 0.46133736 0.022110542 0.27817383 0.5363994 -0.25767675
-0.06597814 -0.09047303 0.6426983 -0.44364893
00000000: c4e0 aebe 43a0 bb3e e21d e0be b062 b53e
00000010: e410 f33d 26aa ca3e 8ba3 2c3f e58c 363d
00000020: 256e 07bf 20db 3abe 6bb2 853e c8af 193f
00000030: 0794 e33d b5a9 01bf 6f56 ebbe 567a 003f
00000040: 8467 ec3e b62c cf3e 916b 21bd 4790 44be
00000050: 3f62 943e 137f 433f bd02 f43e 9c1d 253e
00000060: 7f92 57bd 5693 9e3c cf9a 28be 3d8c cbbe
00000070: dddf 2b3d bc79 493f 635d db3e 3558 ad3e
00000080: 89ab 83be 373f a6be df75 1c3e b934 bc3e
00000090: 148f b7be a33b b33c 4fab 093e e7ea b33e
000000a0: 8929 5a3e 1fb0 62be 9a0e 09bf 821b a7be
000000b0: 1300 653e 1485 0bbf c0d8 9c3e 8482 003f
000000c0: 104d 963e a364 e53e 3151 113f 7f06 a33e
000000d0: bfb4 c73e 9d90 ce3d 6595 90bc 136e 0bbf
000000e0: 69b2 62be ea8a 6bbd 03ba 0dbf 3551 35bf
000000f0: 823f 88be fb4a ca3e 9c7b ae3d 9233 c4bd
00000100: 4ccb 8abd 4975 013f a54c e8be 8c04 26be
00000110: 4651 60be a686 1a3f 534e 9ebe ae11 e13d
00000120: 2bc4 0dbf 1871 083f 64a9 11bf 6fe4 0b3e
00000130: 6d04 19be 94cd e9be 77df 14bf 28c6 ebbe
00000140: 0a6b 06bf 3b15 dfbe 8d3a aebb ec27 853e
00000150: 2c40 bd3e 37e7 0bbf 92d8 d23e aaea d6bc
00000160: ca45 263e 7bff 653f c016 8dbd 6934 ec3e
00000170: 2b21 b53c cd6c 8e3e 7951 093f 35ee 83be
00000180: 8c1f 87bd ed49 b9bd e087 243f f425 e3be

weight f4 [100, 100]
0.054707654 0.008579964 -0.06267364 0.007941513 -0.056385916 -0.0044659385 0.1460042 0.017384892
-0.19369793 0.023394316 -0.036182918 0.07098115 -0.0139003685 -0.029635698 -0.16776055 0.014032692
0.11915546 0.012449641 0.05535975 0.017744713 0.04167395 0.12781347 0.089246675 0.06971989
-0.028520966 0.077750675 0.04226617 -0.02145816 -0.05779084 -0.008669299 0.060082804 0.071292244
0.021431057 -0.036263604 0.0044776243 -0.040836234 -0.050036922 0.07564077 -0.0026628254 0.03190045
0.029802492 0.009782259 0.025450934 0.004134831 -0.019530926 -0.044231236 0.0102885645 0.0052580237
-0.026244428 0.05729883 -0.012183828 -0.03695538 -0.030727345 0.081906594 0.008360896 -0.002298862
0.012100786 -0.017719477 -0.002393369 -0.09521279 -0.061260145 -0.058202945 -0.050986014 -0.0126307355
-0.047162898 0.07685081 -0.043383855 -0.11184644 -0.14116357 0.086273395 -0.12913217 0.0742415
-0.09387472 0.10638628 -0.21780743 -0.032604806 -0.0049266466 -0.10833097 -0.011075316 -0.023132363
-0.13819298 0.033566322 0.1413178 0.054952394 0.038498778 -0.025818527 0.008984957 0.013375478
0.07912041 0.04302237 -0.04148625 -0.0155697325 -0.037500747 0.15135096 0.058109127 -0.022568831
-0.07353965 0.026121188 0.029812071 -0.112750806 0.07376373 0.013236344 -0.08532442 0.033307996
0.035657812 -0.029140323 -0.07701959 0.024481026 -0.061967686 -0.00033599476 0.096556924 0.018382017
0.09987554 -0.046428975 -0.0037940224 0.055950455 0.06908087 0.037827544 -0.03792952 0.047800973
0.0018722912 0.022318305 0.06830881 0.00954944 0.11934529 -0.049725357 -0.22925732 0.0518343
-0.07382378 0.18768199 -0.001984243 -6.839365e-05 -0.09966451 -0.05513775 -0.028119095 0.07434872
-0.28900594 0.05458441 -0.04219464 -0.14977072 0.024837544 -0.014405107 0.051187064 -0.2600814
0.0593108 -0.040713437 -0.017961789 0.0716064 -0.12841876 0.020038461 0.04972492 0.02023185
-0.06879721 -0.0046029766 -0.04812441 -0.19517115 0.03684475 -0.0032376407 -0.13263334 -0.15516615
0.22497442 -0.0036205852 0.049582087 -0.04137668 0.06263815 0.0106262425 0.12415138 -0.05627589
-0.08324445 0.20284525 -0.0021393043 -0.021576943 -0.03140927 0.14630175 -0.104331926 -0.011228427
0.042719398 -0.11443204 -0.043333054 -0.05811748 -0.053539474 -0.03782113 0.029440673 -0.006663019
0.11773528 -0.055422816 -0.13647707 0.05848905 0.08764985 -0.012032714 -0.08037616 0.033134725
0.023159597 0.026105829 0.12544814 -0.074405976 0.25662145 -0.12869512 0.13789058 0.035267062
-0.4844555 0.27612033 0.077622786 -0.10915226 0.23871523 0.33789477 -0.07406486 -0.22283037
-0.2558909 -0.284643 -0.11546065 0.21284056 -0.04821736 -0.07429413 -0.22377822 0.14415632
0.11514791 0.27817696 0.16917667 -0.17850804 0.113297336 -0.07468418 0.00903495 0.022193005
-0.013301735 -0.1921658 0.007326034 -0.08510432 0.6519696 -0.47542983 -0.14457998 0.06602754
-0.04527527 -0.09110204 0.06329218 0.33221155 0.023315152 -0.14523456 -0.0034417333 0.001655177
0.23455279 0.013064188 -0.2669135 0.028391873 0.13728283 -0.15262733 0.087553784 0.050621018
0.3318584 -0.010130645 -0.084728345 0.20452695 0.25970775 0.116823606 0.23865981 0.1355482
00000000: 2215 603d fa92 0c3c 0a5b 80bd 1f1d 023c
00000010: ebf4 66bd 0257 92bb 2082 153e c36a 8e3c
00000020: c058 46be 70a5 bf3c 8a34 14bd 915e 913d
00000030: 5fbe 63bc 90c6 f2bc 6cc9 2bbe 60e9 653c
00000040: c707 f43d 94f9 4b3c e8c0 623d 5c5d 913c
00000050: 4eb2 2a3d 89e1 023e f6c6 b63d 4dc9 8e3d
00000060: cda4 e9bc bf3b 9f3d 4b1f 2d3d 06c9 afbc
00000070: 16b6 6cbd ad09 0ebc 6319 763d ab01 923d
00000080: 2f90 af3c 2589 14bd 09b9 923b e543 27bd
00000090: 84f3 4cbd 8ce9 9a3d cc82 2ebb 0caa 023d
000000a0: 5b24 f43c c545 203c 7a7e d03c 7a7d 873b
000000b0: 52ff 9fbc d02b 35bd 5e91 283c 804b ac3b
000000c0: 8efe d6bc 2eb2 6a3d ae9e 47bc 865e 17bd
000000d0: eab7 fbbc a5be a73d 24fc 083c 81a8 16bb
000000e0: 6042 463c 7028 91bc 12da 1cbb ecfe c2bd
000000f0: ebeb 7abd 3666 6ebd b6d6 50bd 25f1 4ebc
00000100: e22d 41bd f563 9d3d 45b3 31bd bf0f e5bd
00000110: 2f8d 10be 1bb0 b03d 393b 04be ed0b 983d
00000120: 6441 c0bd 0de1 d93d e908 5fbe 9e8c 05bd
00000130: b56f a1bb a1dc ddbd 3e75 35bc 1580 bdbc
00000140: 7682 0dbe d77c 093d 9db5 103e c315 613d
00000150: e5b0 1d3d 6081 d3bc a435 133c d224 5b3c
00000160: e209 a23d 3a38 303d 7ced 29bd 3118 7fbc
00000170: 629a 19bd bffb 1a3e d603 6e3d 45e2 b8bc
00000180: f59b 96bd 1afc d53c 7238 f43c e5e9 e6bd
00000190: 7011 973d 40dd 583c 92be aebd f76d 083d
000001a0: ed0d 123d b0b7 eebc 72bc 9dbd 6f8c c83c
000001b0: d4d1 7dbd 7428 b0b9 a3bf c53d e295 963c
000001c0: 8c8b cc3d 4f2c 3ebd 22a5 78bb 4e2c 653d
000001d0: 457a 8d3d 0ef1 1a3d fc5b 1bbd f4ca 433d
000001e0: ab67 f53a e1d4 b63c 7de5 8b3d 4175 1c3c
000001f0: 4e6b f43d d1ac 4bbd 6ec2 6abe 3450 543d
00000200: ec30 97bd b52f 403e 130a 02bb 906e 8fb8
00000210: e81c ccbd 1fd8 61bd 045a e6bc 2444 983d
00000220: 96f8 93be e793 5f3d 49d4 2cbd 7f5d 19be
00000230: 1b78 cb3c 6603 6cbc 87a9 513d 6429 85be
00000240: e2ef 723d 22c3 26bd 9a24 93bc 60a6 923d
00000250: 3580 03be b327 a43c 5cac 4b3d 44bd a53c
00000260: 8de5 8cbd 91d4 96bb 1a1e 45bd f2da 47be
00000270: 85ea 163d 992e 54bb 09d1 07be e0e3 1ebe
00000280: b25f 663e 5747 6dbb 9616 4b3d 987a 29bd
00000290: 6e48 803d b119 2e3c 1443 fe3d 8c81 66bd
000002a0: 117c aabd aab6 4f3e 9233 0cbb 21c2 b0bc
000002b0: 02a7 00bd 20d0 153e faab d5bd 70f7 37bc
000002c0: 89fa 2e3d 585b eabd 007e 31bd 980c 6ebd
000002d0: 354c 5bbd 54ea 1abd 912d f13c 7455 dabb
000002e0: 321f f13d 0903 63bd a5c0 0bbe 3792 6f3d
000002f0: c481 b33d dc24 45bc 429c a4bd 47b8 073d
00000300: 32b9 bd3c e4db d53c 7a75 003e 2962 98bd
00000310: e363 833e a7c8 03be 3033 0d3e 3274 103d
00000320: 8d0a f8be a55f 8d3e b2f8 9e3d 388b dfbd
00000330: c471 743e 8b00 ad3e 51af 97bd a52d 64be
00000340: 2204 83be babc 91be a276 ecbd e0f2 593e
00000350: 917f 45bd 8527 98bd 1e26 65be b79d 133e
00000360: abd2 eb3d 366d 8e3e a63c 2d3e d0ca 36be
00000370: 6f08 e83d 05f4 98bd 5407 143c 1bce b53c
00000380: 85ef 59bc 1dc7 44be 3a0f f03b 2c4b aebd
00000390: 7be7 263f 8a6b f3be c60c 14be 7239 873d
000003a0: 9072 39bd b593 babd 559f 813d a217 aa3e
000003b0: 6bff be3c 5eb8 14be b48e 61bb 86f2 d83a
000003c0: 9b2e 703e 2d0b 563c e3a8 88be 1396 e83c
000003d0: df93 0c3e 574a 1cbe 664f b33d fc57 4f3d
000003e0: 58e9 a93e 01fb 25bc 0e86 adbd 836f 513e
000003f0: 6af8 843e 3741 ef3d 3d63 743e 26cd 0a3e

bias f4 [100]
0.20977691 0.0109674 0.10913425 -0.13654087 0.07215938 0.24357978 0.040664125 -0.032005664
-0.058248956 0.17457868 -0.09945694 0.029012157 0.0926662 0.10786622 -0.12449419 0.12569039
0.15027137 0.1298443 0.0069259666 0.11324305 0.094223425 0.026736049 -0.013761243 -0.049783234
0.13512683 -0.08552004 -0.099160984 -0.110188514 -0.10973331 -0.07787808 -0.05232889 -0.14654891
-0.032590896 0.0662663 -0.19008943 0.22199383 0.09791304 -0.13297196 -0.15954582 -0.0013580858
-0.14899819 0.06791365 -0.02792558 -0.1601303 0.047720123 0.005535941 0.002225887 -0.1628992
0.0529403 0.123140864 -0.032585654 -0.07028433 -0.02934997 -0.00821997 0.13303955 -0.016792517
-0.002401757 -0.08828984 0.027599683 0.12487635 -0.18264382 -0.07459875 0.10080778 -0.13772908
-0.1994376 0.06662873 -0.040577333 -0.053264286 0.011670874 -0.035948083 0.14914347 -0.10512661
-0.079129584 0.09042234 -0.037370443 -0.12926975 0.0211703 -0.0021929787 -0.07272423 -0.07167657
0.07778712 -0.0040427074 0.21043152 0.13482495 0.18422772 -0.12346951 -0.072689176 -0.15440008
0.042966433 -0.007179189 -0.12347383 -0.068747155 0.16805163 -0.15724134 0.10884716 0.009505884
0.04587502 0.106403224 -0.08170959 0.109882
00000000: c2cf 563e 9cb0 333c c781 df3d 5fd1 0bbe
00000010: 4cc8 933d fa6c 793e 6d8f 263d 5f18 03bd
00000020: 7596 6ebd c1c4 323e 15b0 cbbd e7aa ed3c
00000030: c7c7 bd3d f7e8 dc3d cff6 febd fbb4 003e
00000040: bde0 193e e7f5 043e 38f3 e23b f9eb e73d
00000050: 36f8 c03d 8f05 db3c d676 61bc 81e9 4bbd
00000060: b05e 0a3e 2125 afbd ea14 cbbd 84aa e1bd
00000070: dcbb e0bd 8b7e 9fbd d156 56bd eb10 16be
00000080: 087e 05bd a0b6 873d cea6 42be 5a52 633e
00000090: a286 c83d cd29 08be fb5f 23be cc01 b2ba
000000a0: fb92 18be 5016 8b3d 30c4 e4bc 33f9 23be
000000b0: 2d76 433d d766 b53b 30e0 113b 0ccf 26be
000000c0: eed7 583d 4731 fc3d 8978 05bd 3bf1 8fbd
000000d0: 596f f0bc 0ead 06bc 853b 083e 7690 89bc
000000e0: cc66 1dbb 4ed1 b4bd bb18 e23c 2cbf ff3d
000000f0: fb06 3bbe 3bc7 98bd 4f74 ce3d da08 0dbe
00000100: 5f39 4cbe a574 883d 6b34 26bd a72b 5abd
00000110: 3237 3f3c 4c3e 13bd 11b9 183e 9f4c d7bd
00000120: b10e a2bd 592f b93d c011 19bd 4a5f 04be
00000130: 566d ad3c 14b8 0fbb 71f0 94bd 2acb 92bd
00000140: db4e 9f3d b078 84bb 5c7b 573e 8d0f 0a3e
00000150: 31a6 3c3e 95dd fcbd 10de 94bd 0e1b 1ebe
00000160: 92fd 2f3d 673f ebbb d9df fcbd 4fcb 8cbd
00000170: ba15 2c3e e003 21be 43eb de3d 91be 1b3c
00000180: 72e7 3b3d efe9 d93d 5c57 a7bd d009 e13d

weight f4 [100, 100]
-0.00019350475 4.9471797e-05 0.0002277247 -1.599216e-05 2.213732e-05 -5.4005264e-05 0.0011487785 -0.00012237155
-9.796347e-05 -0.00041190608 0.0005300871 -0.16692773 8.236793e-05 -0.00021585793 -0.0019658825 -2.9597557e-05
4.0213046e-05 3.8237224e-05 9.47825e-05 -0.75495696 -0.14413673 0.0002558401 0.00014669947 0.001091486
4.9976603e-05 -0.0007617731 0.20367773 0.00039933238 -5.3155032e-05 -2.1102129e-05 -0.00046204557 0.23454471
-0.00062717294 5.0063718e-05 -0.0003635313 0.00024703023 4.1267398e-05 -1.6253756e-05 2.7400441e-05 8.770098e-05
2.9723034e-05 0.00048458047 0.0003444901 0.0008738088 0.0007907305 -0.49768364 -0.00017950468 6.375316e-05
0.0001253921 0.0011092545 0.00044941128 0.00021758737 0.00021355634 -3.4375278e-06 -7.995912e-05 -0.0005864013
-0.33632433 -7.6149576e-05 -0.00053424865 -0.00053489156 3.0402934e-05 0.07824179 0.0005394738 0.0011509226
0.00015424527 -1.4863025 -0.0011486626 -0.00033179327 -3.5340516e-05 -0.00017653154 -9.371059e-05 4.9966977e-05
-0.00043764696 -0.00035631444 -0.00039370212 0.0002266838 -0.00024826993 0.0002781726 -0.0012748688 0.00033878357
0.0006783003 -5.7098576e-05 0.0006931211 -1.6989934 6.0208335e-05 -9.109482e-05 1.643636e-06 -0.001434467
-5.8016205e-05 0.00026554213 -1.7422495e-05 -6.783527e-06 0.00010842358 -3.6393973e-05 3.8487142e-05 4.8821938e-05
-1.9790594e-05 -7.3130113e-06 -5.553641e-05 4.1568423e-05 0.014652706 -0.052073404 -0.116030894 0.00681081
0.012189111 -0.024019083 -0.06284452 0.07500203 -0.0067368643 -0.03134418 0.040409077 0.02817604
-0.02469172 -0.0036262614 0.039420918 -0.19138184 -0.11271837 -0.020404054 0.0054718773 -0.27477276
-0.04953791 -0.22418731 0.0266302 -0.016801728 0.0073100454 0.16467692 0.11636293 0.01908459
0.01357491 -0.008725713 0.0289171 0.00023486429 -0.16826294 -0.01428064 -0.019419713 -0.16158925
-0.14575687 0.0008719229 -0.0066393856 0.015837038 0.028549898 -0.15926847 0.0024099387 0.07970282
0.008637734 -0.21575753 -0.09248025 0.13005742 0.027718348 -0.0027774542 0.02672141 0.006497778
-0.011490653 -0.01295387 0.017782811 0.040622294 -0.073869124 -0.04502384 0.002867192 0.0094886925
0.10156947 -0.007429425 0.002196949 -0.106330514 0.015194759 -0.21256758 0.01883833 0.018869089
0.0766617 0.0012585351 -0.065301485 -0.026919946 0.04217066 -0.063103974 0.055052493 0.10227093
0.07024005 -0.01814631 -0.0040343716 0.09595431 -0.10867061 -0.007909351 0.024840929 -0.40511808
-0.070570335 0.05399981 0.05907736 -0.032697357 -0.01231682 -0.009078961 -0.0057299864 0.09045085
0.02624987 0.3473637 0.007107818 0.00025114487 -0.040803034 -0.052721713 -0.007640063 -0.15377997
-0.14789115 -0.024656948 0.08000355 0.04477563 -0.1119663 0.069845624 -0.031313486 -0.020492714
0.10110997 0.14350748 0.10457926 0.033522516 -0.025466513 -0.05483094 -0.09852547 -0.021764373
-0.19838451 -0.13452531 -0.08267891 -0.10892348 -0.15461367 0.018615806 -0.04185693 0.069821194
-0.14847393 0.14795688 0.16214192 0.034872487 0.12753391 0.124017395 0.06813861 0.10562733
-0.042188313 -0.08845597 0.0049344325 -0.07489203 -0.0035092982 0.020731505 0.11715066 0.07249559
0.0029526772 -0.21223032 -0.028074501 -0.05372101 -0.05617312 -0.081627905 -0.075909026 0.043809067
0.055149417 0.008867347 -0.112815686 0.038182 -0.02241024 -0.21002586 0.00629102 -0.0011964215
00000000: 89e7 4ab9 f07f 4f38 62c9 6e39 e726 86b7
00000010: 88b3 b937 b683 62b8 9c92 963a dd50 00b9
00000020: bd71 cdb8 19f5 d7b9 8bf5 0a3a 1aef 2abe
00000030: f2bc ac38 ec57 62b9 09d6 00bb 4548 f8b7
00000040: 6eaa 2838 e860 2038 f8c5 c638 dc44 41bf
00000050: 9498 13be 4722 8639 57d3 1939 3110 8f3a
00000060: f89d 5138 bab1 47ba e590 503e 7c5d d139
00000070: c8f2 5eb8 7a04 b1b7 b53e f2b9 7d2c 703e
00000080: dd68 24ba 82fb 5138 5898 beb9 d683 8139
00000090: 8816 2d38 ad58 88b7 00da e537 1bec b738
000000a0: bb55 f937 4a0f fe39 ae9c b439 5110 653a
000000b0: 0749 4f3a 64d0 febe 6c39 3cb9 38b3 8538
000000c0: af7b 0339 6864 913a f69e eb39 2a28 6439
000000d0: 18ee 5f39 47b0 66b6 baaf a7b8 bab8 19ba
000000e0: b432 acbe 7eb2 9fb8 d20c 0cba f737 0cba
000000f0: ce09 ff37 3b3d a03d 796b 0d3a 8eda 963a
00000100: e6bc 2139 293f bebf b98e 96ba 8af4 adb9
00000110: 973a 14b8 531b 39b9 7d86 c4b8 a293 5138
00000120: fb73 e5b9 b7cf bab9 ce69 ceb9 f8b1 6d39
00000130: 3a2a 82b9 b2d7 9139 8019 a7ba c39e b139
00000140: f6cf 313a 217d 6fb8 92b2 353a 9e78 d9bf
00000150: 3588 7c38 290a bfb8 e79a dc35 ba04 bcba
00000160: 6d56 73b8 7638 8b39 8626 92b7 0e9e e3b6
00000170: 7761 e338 bba5 18b8 416d 2138 28c6 4c38
00000180: fa03 a6b7 4a62 f5b6 c4ef 68b8 c159 2e38
00000190: e711 703c ec4a 55bd 9ba1 edbd 372d df3b
000001a0: d6b4 473c abc3 c4bc a1b4 80bd aa9a 993d
000001b0: eac0 dcbb c162 00bd fd83 253d 70d1 e63c
000001c0: 4a46 cabc 92a6 6dbb d477 213d 9af9 43be
000001d0: e4d8 e6bd 6726 a7bc 6f4d b33b 04af 8cbe
000001e0: 43e8 4abd 5c91 65be 9427 da3c c7a3 89bc
000001f0: 1b89 ef3b 11a1 283e b04f ee3d 4957 9c3c
00000200: 4d69 5e3c 4bf6 0ebc 8ee3 ec3c e745 7639
00000210: 1f4d 2cbe 58f9 69bc 1716 9fbc a777 25be
00000220: 4a41 15be c191 643a 348f d9bb adbc 813c
00000230: 7ae1 e93c 4617 23be 10f0 1d3b 3b3b a33d
00000240: 4885 0d3c 8bef 5cbe 4966 bdbd c62d 053e
00000250: 9711 e33c f305 36bb dce6 da3c 50eb d43b
00000260: 4b43 3cbc 783c 54bc 42ad 913c 9063 263d
00000270: b248 97bd eb6a 38bd 80e7 3b3b 7676 1b3c
00000280: a703 d03d 8972 f3bb b0fa 0f3b d0c3 d9bd
00000290: 70f3 783c 51ab 59be d752 9a3c 5993 9a3c
000002a0: cf00 9d3d 6ef5 a43a c9bc 85bd 3887 dcbc
000002b0: 24bb 2c3d a83c 81bd b97e 613d 6c73 d13d
000002c0: 04da 8f3d 92a7 94bc c332 84bb b183 c43d
000002d0: b28e debd 3996 01bc 347f cb3c a36b cfbe
000002e0: 2e87 90bd e82e 5d3d 1afb 713d aaed 05bd
000002f0: 7dcc 49bc ecbf 14bc 9cc2 bbbb 4c3e b93d
00000300: f809 d73c a8d9 b13e b3e8 e83b 18ac 8339
00000310: 1521 27bd b9f2 57bd 7e59 fabb 7f78 1dbe
00000320: c770 17be 5efd c9bc e7d8 a33d a766 373d
00000330: 964e e5bd 390b 8f3d 9242 00bd 56e0 a7bc
00000340: be12 cf3d a0f3 123e a72d d63d e84e 093d
00000350: 269f d0bc 6896 60bd b9c7 c9bd 334b b2bc
00000360: 4f25 4bbe 01c1 09be 8f53 a9bd 4613 dfbd
00000370: 0c53 1ebe 2d80 983c 2c72 2bbd 6afe 8e3d
00000380: 8d09 18be 0282 173e 8808 263e 74d6 0e3d
00000390: 4098 023e d5fc fd3d 418c 8b3d 2453 d83d
000003a0: a7cd 2cbd 6728 b5bd 05b1 a13b fe60 99bd
000003b0: 41fc 65bb 1ed5 a93c afec ef3d 9178 943d
000003c0: b481 413b e852 59be 7ffc e5bc 900a 5cbd
000003d0: c915 66bd 882c a7bd 3176 9bbd 2371 333d
000003e0: 5be4 613d 5948 113c e90b e7bd bb64 1c3d
000003f0: ae95 b7bc 0511 57be e724 ce3b 3ed1 9cba

bias f4 [100]
3.952814e-05 -0.027677039 -0.024115607 0.013332975 -0.026229743 0.10875286 0.025199875 0.07223594
0.08874915 0.023855656 0.065490685 0.028139079 0.029367076 -0.037869763 0.020783741 0.06214496
0.1479172 -0.032389987 -0.01460928 -0.01711863 -0.002002205 0.029477602 -0.100328684 -0.0029776327
0.036402244 -0.11095129 -0.08316025 -0.014820362 0.036684006 -0.020800702 0.026792131 -0.050149
-0.06709064 0.0813505 0.0016735968 -0.017955692 -0.003391667 -0.13078228 -0.23895963 0.01610109
0.015681691 -0.20604931 0.014816327 -0.021568645 0.015164062 -0.00440826 -0.013236525 -0.24777478
0.043806758 0.012504535 0.009981741 -0.03868787 -0.012506952 -0.028092505 0.026134536 -0.025336076
0.025702206 -0.16904517 -0.0715535 0.018070651 -0.023000026 0.015669923 0.003545282 -0.021939266
0.05613084 0.1751446 -0.010844572 -0.12021254 -0.002648644 -0.0059269755 0.082788706 -0.12275001
0.018807212 0.027869564 -0.032670163 -0.020827655 0.05053616 -0.056525014 -0.06577383 -0.009555421
0.036780145 0.01617108 -0.06386675 0.020734143 0.029321462 -0.011768398 0.033872485 0.12817743
-0.0012088456 -0.07879064 0.004486574 0.033126693 0.034287125 0.0097466465 -0.008573279 -0.0072128708
-0.03783601 -0.18948613 0.048026778 0.016765492
00000000: 04cb 2538 f5ba e2bc 188e c5bc 8d72 5a3c
00000010: c2df d6bc d2b9 de3d f86f ce3c 70f0 933d
00000020: 1dc2 b53d f06c c33c fb1f 863d ed83 e63c
00000030: 3993 f03c 531d 1bbd aa42 aa3c b78b 7e3d
00000040: 9b77 173e 5dab 04bd c35b 6fbc 5f3c 8cbc
00000050: 6d37 03bb 037b f13c 2079 cdbd 6324 43bb
00000060: 851a 153d 6e3a e3bd ec4f aabd 1bd1 72bc
00000070: f841 163d 3c66 aabc 2c7b db3c 0a69 4dbd
00000080: d166 89bd 179b a63d 975c db3a d117 93bc
00000090: bb46 5ebb caeb 05be d5b1 74be 6fe6 833c
000000a0: e476 803c 97fe 52be 2ec0 723c bab0 b0bc
000000b0: b072 783c 2a73 90bb 02de 58bc acb8 7dbe
000000c0: b76e 333d d2df 4c3c 758a 233c 2c77 1ebd
000000d0: f5e9 4cbc 4122 e6bc 1818 d63c 9a8d cfbc
000000e0: 6f8d d23c 2d1a 2dbe a48a 92bd e708 943c
000000f0: 8d6a bcbc 365e 803c f657 683b fab9 b3bc
00000100: 74e9 653d 1b59 333e 6fad 31bc fe31 f6bd
00000110: df94 2dbb 1337 c2bb 208d a93d 5b64 fbbd
00000120: 9511 9a3c b64e e43c 26d1 05bd c29e aabc
00000130: 01ff 4e3d c686 67bd 6eb4 86bd 578e 1cbc
00000140: c7a6 163d 3679 843c 92cc 82bd a6da a93c
00000150: 9033 f03c 3dd0 40bc e0bd 0a3d f240 033e
00000160: 2172 9eba fd5c a1bd 1c04 933b dbaf 073d
00000170: a870 0c3d 66b0 1f3c f076 0cbc f259 ecbb
00000180: eff9 1abd a708 42be bab7 443d c957 893c

weight f4 [19, 100]
-1.8540534 -0.7146213 -0.84681183 1.547861 -1.3431845 -1.7076766 -1.2838011 1.1747917
0.9418072 1.5172962 1.2673635 1.1829822 1.2931122 -1.4185957 1.3111517 1.417181
1.2314805 -0.97314423 -1.0191454 1.4268279 -1.5890281 1.5375627 -1.4341105 1.2010297
0.745352 -2.137894 -2.1426349 -1.1845944 1.3617194 -0.23658343 1.0231916 0.6824064
0.008141406 -0.8933971 1.5313905 -1.079538 -1.2999135 -0.8413468 1.3176743 -1.3029215
1.1116146 -1.6867131 1.2615201 1.203169 1.1997557 1.3142215 -0.64258075 -1.5317025
1.1104351 1.399345 -1.0466303 -1.1042185 -0.7235166 -1.1438382 1.0770755 -1.360509
0.8575437 -1.8970827 -0.82537884 1.6264904 -0.76562643 -0.56480956 1.4867084 -1.0327722
1.6856251 1.2020956 -1.2868642 -0.7318775 -1.5506561 -1.0706577 1.5431544 -1.7898185
0.98898387 1.0841718 -1.1392952 -1.2491498 -1.7221352 -1.1075321 -1.366354 1.4542515
1.282145 -1.5712987 -1.3198388 -0.9937545 1.4609632 -0.4779922 1.8317689 -1.3653147
-1.2929058 -1.2216194 1.2638718 0.691657 -1.1893659 1.1494658 -1.6700913 -1.0686815
-1.2510592 -1.5016016 -1.814883 1.1326952 0.2440909 0.7282206 -0.85085064 0.60762715
-0.07997993 -0.21149881 -0.8101218 -0.14379182 -1.240063 -0.14320537 0.3522868 -0.13183883
0.3221969 0.99957925 -0.17044094 0.043898597 0.5347614 0.07260977 -0.15083899 0.03711979
-0.32214049 -0.50050676 0.59985685 0.17656827 0.18505906 -0.18924743 0.12776591 0.605618
0.10456156 -2.0234268 -0.14929438 0.28606704 1.2741512 0.4437623 -0.4497328 0.052357502
-0.04232774 -0.47157505 0.05243865 -0.08996066 0.000513423 0.15266931 0.24545467 -0.23313765
1.0512296 -0.45785233 -0.04565231 -0.05122699 0.4094874 0.27417824 -0.72890985 -0.55798024
-0.13339183 0.17130122 -0.038706888 -0.08452048 0.17491826 0.24499033 1.0925193 -0.6772553
-0.060286585 -0.10560985 -0.47283342 -0.7132433 0.09872609 0.073329926 0.38030654 0.51387376
-0.38461787 -0.40830094 0.31859437 0.060126837 0.069620304 -0.6305198 0.28921613 -0.40440995
0.37555826 0.035994023 0.5422491 -0.2686063 -0.18604212 0.5603341 -0.04830252 -0.0016129604
-0.065864675 -0.555021 -0.34523338 -0.4588014 -0.91347075 -0.19230486 0.25839975 -0.14978284
0.34956616 -0.50205314 0.59252566 -1.3123226 -0.24925569 0.104186125 0.06244634 -1.1858579
-0.0067746793 -0.00707837 -0.0069269505 0.006655072 -0.0073002786 0.0068419934 -0.0065211477 0.007316005
0.0067956564 0.0070744017 0.006977022 0.007312075 0.0067795734 -0.0070582293 0.007015194 -0.008563295
0.0039950088 -0.006924285 -0.0069058607 0.005313178 -0.0069098203 0.0075952625 0.0037566493 0.00670498
0.0069666286 -0.0066923755 -0.00018002547 -0.006785986 0.006753894 -0.007289531 0.0071787257 0.0045436607
-0.01507301 0.0056291106 0.0069857715 -0.0070692883 -0.007163476 -0.006766672 -0.010631108 -0.0067783766
0.0069565303 0.006926205 0.006980834 0.0040962896 0.0070528127 0.0059771417 0.0046511833 0.0069853575
0.006936159 0.0067803357 -0.006926675 -0.0069325403 -0.0072273444 -0.0072857924 0.0072421175 -0.007298108
00000000: 9f51 edbf 6cf1 36bf a9c8 58bf 4f20 c63f
00000010: 78ed abbf 2695 dabf 9853 a4bf 935f 963f
00000020: 471a 713f c336 c23f f838 a23f f66b 973f
00000030: b384 a53f 8b94 b5bf d2d3 a73f 3066 b53f
00000040: 27a1 9d3f fb1f 79bf 5b73 82bf 4ca2 b63f
00000050: 4665 cbbf dbce c43f ef90 b7bf 57bb 993f
00000060: 64cf 3e3f 41d3 08c0 ee20 09c0 caa0 97bf
00000070: d24c ae3f ed42 72be f1f7 823f 30b2 2e3f
00000080: 8863 053c acb5 64bf 9b04 c43f 4d2e 8abf
00000090: 9163 a6bf 8162 57bf 8da9 a83f 22c6 a6bf
000000a0: 6349 8e3f 37e6 d7bf 7e79 a13f 7101 9a3f
000000b0: 9891 993f 6938 a83f 2c80 24bf d40e c4bf
000000c0: bd22 8e3f bd1d b33f fbf7 85bf 0857 8dbf
000000d0: 6238 39bf 4a69 92bf 9cdd 893f 2925 aebf
000000e0: fc87 5b3f 9bd3 f2bf 074c 53bf d630 d03f
000000f0: 1800 44bf 5c97 10bf 764c be3f e131 84bf
00000100: 90c2 d73f 45de 993f f7b7 a4bf 535c 3bbf
00000110: e67b c6bf 500b 89bf 1586 c53f c618 e5bf
00000120: 0c2e 7d3f 24c6 8a3f 6dd4 91bf 24e4 9fbf
00000130: ed6e dcbf 9dc3 8dbf b0e4 aebf ea24 ba3f
00000140: 541d a43f 5120 c9bf 7af0 a8bf b266 7ebf
00000150: d800 bb3f 65bb f4be 6777 ea3f a2c2 aebf
00000160: f07d a5bf 065e 9cbf 8dc6 a13f 6f10 313f
00000170: 243d 98bf b221 933f 8dc5 d5bf 8eca 88bf
00000180: b522 a0bf 7b34 c0bf 164e e8bf 28fc 903f
00000190: f7f2 793e aa6c 3a3f 59d1 59bf 748d 1b3f
000001a0: 84cc a3bd 2593 58be 2464 4fbf 2a3e 13be
000001b0: 62ba 9ebf 6ea4 12be ef5e b43e c200 07be
000001c0: fef6 a43e 6de4 7f3f 1288 2ebe 04cf 333d
000001d0: 20e6 083f 6eb4 943d 8975 1abe ec0a 183d
000001e0: 99ef a4be 3621 00bf 3890 193f 50ce 343e
000001f0: 1f80 3d3e 14ca 41be 11d5 023e c809 1b3f
00000200: 5f24 d63d d37f 01c0 a0e0 18be 6177 923e
00000210: 6317 a33f d034 e33e 6143 e6be d274 563d
00000220: da5f 2dbd 4972 f1be e9c9 563d 4b3d b8bd
00000230: 3c97 063a 5855 1c3e 7858 7b3e a3bb 6ebe
00000240: b18e 863f 9f6b eabe ebfd 3abd 64d3 51bd
00000250: 55a8 d13e 1761 8c3e d699 3abf cbd7 0ebf
00000260: de97 08be 9669 2f3e 1d8b 1ebd 1319 adbd
00000270: c61d 333e bfde 7a3e acd7 8b3f 9a60 2dbf
00000280: 11ef 76bd fa49 d8bd 3917 f2be 1d97 36bf
00000290: e730 ca3d 002e 963d 8ab7 c23e 3b8d 033f
000002a0: a2ec c4be d20c d1be cd1e a33e 8f47 763d
000002b0: 1795 8e3d bf69 21bf 2314 943e d20e cfbe
000002c0: 2c49 c03e 786e 133d d6d0 0a3f c486 89be
000002d0: d381 3ebe 0e72 0f3f ddd8 45bd f869 d3ba
000002e0: 0fe4 86bd db15 0ebf 6ec2 b0be 04e8 eabe
000002f0: 38d9 69bf 91eb 44be f94c 843e ac60 19be
00000300: 56fa b23e 8e86 00bf c3af 173f 30fa a7bf
00000310: e23c 7fbe 895f d53d bcc7 7f3d 31ca 97bf
00000320: 21fe ddbb acf1 e7bb 79fb e2bb ca12 da3b
00000330: 2d37 efbb cd32 e03b 5aaf d5bb 19bb ef3b
00000340: 19ae de3b 62d0 e73b 819f e43b 219a ef3b
00000350: 2f27 de3b b848 e7bb b6df e53b 104d 0cbc
00000360: 90e8 823b 1de5 e2bb 8f4a e2bb 2b1a ae3b
00000370: c66b e2bb aee1 f83b 1e32 763b 73b5 db3b
00000380: 5148 e43b b74b dbbb 38c5 3cb9 fa5c debb
00000390: c54f dd3b 05dd eebb 843b eb3b fde2 943b
000003a0: c9f4 76bc 6774 b83b e6e8 e43b 7da5 e7bb
000003b0: 98bb eabb f5ba ddbb 192e 2ebc 251d debb
000003c0: 9bf3 e33b 38f5 e23b 7bbf e43b 2b3a 863b
000003d0: 481b e73b e6db c33b f468 983b 6de5 e43b
000003e0: b848 e33b 942d de3b 29f9 e2bb 5d2a e3bb
000003f0: 5cd3 ecbb a8bd eebb 494f ed3b f824 efbb

bias f4 [19]
3.989613e-06 -0.054694537 0.0132034095 0.014485631 -8.7404146e-07 -2.3582004e-06 4.2781426e-06 -1.8854911e-06
-2.973577e-06 4.4500653e-06 3.2867774e-06 3.4305e-06 4.024516e-06 -3.820461e-06 -6.399433e-07 -9.598011e-07
4.4393787e-06 4.1637854e-06 -2.2272366e-06
00000000: 84de 8536 6107 60bd 1d53 583c 2455 6d3c
00000010: ac9f 6ab5 9341 1eb6 f78c 8f36 fb10 fdb5
00000020: aa8d 47b6 c551 9536 6892 5c36 8b37 6636
00000030: 540a 8736 8331 80b6 92c8 2bb5 84d2 80b5
00000040: f9f5 9436 a5b6 8b36 a277 15b6
