src/gantry_crane_controller/pinn_models/Model FINAL 18 jun.pt (torch, 15788 bytes, 8 tensors)

weight f4 [20, 8]
000000 bb 77 b0 3e d2 96 71 be 27 42 0e bc 63 29 8b bd
       0.34466347 -0.2359269 -0.008682764 -0.06795003
000010 87 14 f4 bd bb fc 04 be 00 4e 8b be 0d f3 25 3e
       -0.11917978 -0.12987034 -0.27207947 0.16205998
000020 13 81 00 bd 71 62 59 be 61 42 49 3e c3 3e a5 bc
       -0.031373095 -0.21228959 0.19654228 -0.020171529
000030 c7 22 63 3c 27 37 20 3e 3e 02 80 be 06 fd 4e be
       0.013863272 0.15646039 -0.2500171 -0.20213708
000040 b6 a7 35 3d 8d 67 8c 3d 1d 71 b3 3c bc 3a f3 3d
       0.044349395 0.06855688 0.021904523 0.11876437
000050 75 af 5a be 11 97 3c be 39 7a 47 be 3e d9 a7 3d
       -0.21355994 -0.18417002 -0.19480218 0.081957325
000060 88 ad 4e be 68 9f 8c 3e 35 26 1c 3e f7 aa 65 bd
       -0.20183384 0.27465367 0.1524895 -0.056071248
000070 34 1b 1e 3e 45 de 22 3d d0 2c 84 be f4 bc bd bd
       0.15440065 0.039762754 -0.2581544 -0.092645556
000080 79 fb a5 3d 1f bc 12 be b0 a6 47 be 36 0c a8 3c
       0.08104605 -0.14329575 -0.1949718 0.020513635
000090 b2 8a 17 be ea 56 d2 3d 80 e7 12 be 36 45 9d be
       -0.14799002 0.10270484 -0.14346123 -0.30716866
0000a0 14 ad 2c 3e f1 1b b8 bd c8 39 1c be 29 3a bc 3d
       0.16862899 -0.089897044 -0.15256417 0.09190781
0000b0 4c 77 09 3e be 7e 17 3e bd 65 a9 3e 82 03 12 be
       0.13424414 0.14794442 0.33085433 -0.1425915
0000c0 fb 2c 55 3e 29 f2 b6 3d 77 be c7 bd 37 92 20 3e
       0.2081794 0.08932907 -0.09753125 0.15680777
0000d0 85 81 d5 3d fa bd a0 3d 85 cd 23 3e 41 8d 07 3e
       0.104250945 0.07848735 0.15996368 0.13237478
0000e0 30 0c 0b be ae 01 f3 bb 85 a9 a7 3d cc 79 74 be
       -0.13578868 -0.0074159717 0.0818663 -0.23874587
0000f0 05 32 cf 3d e3 a8 20 be bd c1 b1 bd 1a c8 d9 3d
       0.10116962 -0.15689425 -0.08679531 0.106338695
000100 c7 32 59 3e e6 7d a2 bd 20 58 cc 3d f8 c2 ec bc
       0.21210776 -0.079341695 0.09977746 -0.028901562
000110 f2 4b 53 3d 03 01 4a be 0d c2 c9 3e 1e 0a 90 3e
       0.0515861 -0.19726948 0.39405861 0.2813272
000120 4a ad 45 bd 8e 8d b5 be be 50 57 3e 7e a5 9d bd
       -0.048260964 -0.3545956 0.21026894 -0.07697581
000130 1f a6 69 bd 6b 69 1c 3d f2 78 55 be 0d b6 aa bd
       -0.05704319 0.038186472 -0.20846918 -0.08335505
000140 dc 36 76 be 86 f7 3c bd 0b a8 db 3d ba 02 67 bd
       -0.24044365 -0.046134494 0.10725411 -0.056399085
000150 1e 86 15 be b1 f1 d2 bd 09 44 38 be 79 c3 df be
       -0.14601943 -0.10300005 -0.17994703 -0.4370382
000160 c4 f1 87 3e b0 af f8 bd ff 2b d0 3d f2 89 6c be
       0.2655164 -0.12142885 0.101646416 -0.23099497
000170 a7 99 ac be fc c4 e2 bd 5f c5 53 be 18 50 45 3e
       -0.33710977 -0.11072728 -0.2068076 0.19268835
000180 61 43 b7 be 5a db 5f bc 04 7d 60 3e 2f 26 05 3e
       -0.35793594 -0.013663137 0.2192269 0.13002847
000190 af 25 1b 3e 71 94 95 3d 90 23 2b 3d 80 6f 17 3e
       0.15151094 0.073037036 0.041781962 0.14788628
0001a0 08 b7 67 3e 29 99 28 3e 7a 61 64 3e c3 c1 32 bd
       0.22628415 0.16464676 0.2230281 -0.043641817
0001b0 54 7f 35 be 85 bc 08 be f1 16 76 3e 48 19 64 be
       -0.17724353 -0.13353164 0.24032189 -0.22275269
0001c0 8a b6 bb bd 14 07 50 3e 49 48 26 3e b9 37 86 3e
       -0.09165676 0.203152 0.16238512 0.26214388
0001d0 03 ac fd 3d 1f 8e 0a 3e e3 d9 3c 3c 06 24 26 3e
       0.12386324 0.13530777 0.011526558 0.1622468
0001e0 14 9b 6a be 95 a6 66 be 4c 3a ab bb a3 e7 69 be
       -0.2291072 -0.22524484 -0.0052254554 -0.22842269
0001f0 53 f8 1d be 90 9d 8f bd 1e be a7 3e 90 af 9f be
       -0.1542676 -0.070124745 0.32762235 -0.3118863
000200 f1 d5 81 be f2 de 71 3e 2b 43 e9 3d 11 f3 ca 3d
       -0.25358537 0.23620203 0.113897644 0.099096425
000210 a1 2d a6 be 24 93 9d be 6e 1d 77 bc c8 ad 5c 3e
       -0.32456687 -0.30776322 -0.0150827 0.21550667
000220 23 dd 8a be 42 23 79 bd 6e 46 13 bc 02 a1 ed bd
       -0.2712184 -0.06082464 -0.00898896 -0.116029754
000230 e9 56 f2 3d 45 30 49 be 50 19 93 3e 6c e0 12 3e
       0.11832983 -0.1964732 0.2873025 0.14343423
000240 46 c8 8c bd e9 5b 8a 3e 4e e4 a8 3e 9c 2f 93 3d
       -0.068741366 0.27023247 0.32986683 0.07186815
000250 00 a8 a3 3d 2c 01 16 be ac 46 09 3e 6e e1 21 be
       0.07991028 -0.14648885 0.13405865 -0.15808651
000260 3e a3 41 3e 15 5c e3 bc 11 99 99 3e 3b d2 37 3d
       0.18909928 -0.02775387 0.29999593 0.044878226
000270 69 85 32 3e 77 63 03 bd 73 9e b9 3c 08 02 ba be
       0.17433704 -0.03207728 0.022658562 -0.36329675

bias f4 [20]
000000 df be 55 be 55 9b 70 3c 1e a6 8d 3e 83 e5 59 3d
       -0.20873593 0.014685472 0.276658 0.053197395
000010 38 d7 6f be 8f a5 da 3d f3 6f 98 3e 05 98 b9 3e
       -0.23421943 0.10676109 0.2977291 0.36248794
000020 be 07 0c be ee af 82 be a0 e6 18 be 56 ae 81 3e
       -0.13674828 -0.2552485 -0.14931726 0.2532832
000030 ca b3 50 3e 58 f4 41 bd 4f a0 63 be ea 73 97 be
       0.20381084 -0.047352165 -0.22229122 -0.29580623
000040 bd 16 54 be 6a b8 73 be ca 32 9a be a2 f8 06 3c
       -0.20711799 -0.23800817 -0.30116874 0.00823799

weight f4 [20, 20]
000000 03 9c f8 3d 7c 39 53 bd ba 06 49 be 98 b6 66 3e
       0.12139132 -0.051568493 -0.19631472 0.22530591
000010 88 9e 39 3e 63 9f da bd bf e8 f6 bd 1d 21 3b be
       0.18126881 -0.10674932 -0.120561115 -0.1827435
000020 c5 a7 49 3e 36 bb 75 bd b8 79 08 be a2 ab 47 3e
       0.19692905 -0.05999299 -0.13327682 0.19499066
000030 0a c2 c6 bd 9b ec fb bc 17 6d 26 be 89 98 58 3d
       -0.09704979 -0.03075247 -0.16252552 0.052879844
000040 21 6c ab bd 64 97 d2 bc 55 f1 9e 3d 77 cc d8 3d
       -0.08370233 -0.025706954 0.07760874 0.105858736
000050 88 e2 75 3e b0 9e cb bd f6 e1 18 bd 47 d4 42 3e
       0.24012196 -0.099423766 -0.03732487 0.1902629
000060 2f c4 41 3e 07 93 18 be e4 c9 4a be e9 f8 1a 3e
       0.18922494 -0.14899836 -0.19803578 0.15134014
000070 2b ed 31 be a6 42 81 3d f3 7f 2a be f9 05 16 bd
       -0.17375629 0.0631154 -0.16650371 -0.03662679
000080 63 a9 c9 bd 1b cd 4d be 1d b0 1c 3e 50 23 02 be
       -0.09846761 -0.20097773 0.15301557 -0.12708783
000090 e2 ac 66 3d bc f4 12 3e 96 7e 29 bd 63 a3 62 3e
       0.056317218 0.14351171 -0.041380487 0.2213264
0000a0 47 cf 42 be 2b d6 0d be 0e a6 db bc f8 60 3c 3e
       -0.19024383 -0.1385123 -0.02681258 0.18396366
0000b0 a3 87 d6 3d f7 51 33 be ba ec f5 3d 79 5e c8 3c
       0.104750894 -0.17511736 0.12008043 0.02445911
0000c0 14 4d d0 3d 84 e3 16 3e a8 1d 02 3e 89 df 2e 3e
       0.101709515 0.14735228 0.12706625 0.1707746
0000d0 e0 07 7b 3d 84 3b c1 bd a2 23 2b 3e 61 92 65 bd
       0.061286807 -0.0943518 0.16712812 -0.0560478
0000e0 c8 bd a5 bd bf e7 4a be ac b1 34 be 2b ab 05 be
       -0.080928385 -0.19814967 -0.17645901 -0.13053577
0000f0 9b c7 56 3d 56 a0 2c 3e cf ef 22 3e b1 75 f7 bd
       0.052436452 0.16858038 0.15911792 -0.12082995
000100 b5 54 40 3d df 81 03 be a7 29 bf 3d b0 20 42 3e
       0.046955783 -0.1284251 0.093341164 0.18957782
000110 1e a7 a1 3c 8d 0a 86 be 9f 88 2c be d4 37 2c 3e
       0.019733008 -0.26179925 -0.16848992 0.16818172
000120 69 f1 b4 ba e9 4b f2 bd 45 dd d3 bc e3 31 c4 bd
       -0.0013804856 -0.11830885 -0.025862345 -0.09579828
000130 b7 04 e5 3d 43 c3 ac 3d d7 1a 77 be 9f 42 de bd
       0.1118254 0.08435681 -0.24131332 -0.10852551
000140 56 02 31 3d 43 03 4c bd 86 0a 0d 3b 1d aa 28 be
       0.04321512 -0.049807798 0.0021521165 -0.16471143
000150 e6 38 36 be 76 a9 29 3e 08 10 b6 bd 9e 2f b9 bc
       -0.17795143 0.1656855 -0.088897765 -0.022605713
000160 3d 45 05 3e 9c c0 cc 3d 6d 79 0c 3e fd 2f 47 be
       0.13014694 0.09997675 0.13718195 -0.194519
000170 fb 85 36 3e 1c ee 03 3e d4 61 1d 3d 97 2a 6f 3e
       0.17824547 0.128838 0.038423374 0.2335609
000180 61 62 28 bd 06 ae e7 bc cc 30 8f bd 13 cf a9 3d
       -0.041109446 -0.028281223 -0.06991729 0.082914494
000190 a5 04 d6 bd 34 b9 25 be f5 0d fe 3d da ea 3a be
       -0.104501046 -0.1618393 0.12405006 -0.18253651
0001a0 db 74 69 bd 90 1d 4c be 18 74 2f 3e 9b f2 10 3e
       -0.056996208 -0.19933152 0.1713413 0.14155047
0001b0 e2 90 44 3e 94 b7 11 bd b0 64 26 be 9b 2a ad bc
       0.19195893 -0.035575464 -0.16249347 -0.02113848
0001c0 02 78 89 bd 0a 8e 25 be da 09 d8 3d 6b c5 52 3d
       -0.06712343 -0.16167465 0.10548754 0.051457804
0001d0 dc ce 58 be 15 fb 32 3d bd c9 7e be 1c 33 ec bd
       -0.2117266 0.04369648 -0.24881645 -0.11533186
0001e0 31 77 ed 3c aa dd e6 39 b1 c6 55 3c 9a 81 85 3d
       0.028987499 0.0004403417 0.01304786 0.0651886
0001f0 ac a2 4a 3e a5 59 8c 3d d7 3e c6 bd 5b e1 0c bb
       0.19788617 0.06853036 -0.096799545 -0.0021496627
000200 60 b3 de 3d da 38 3c 3e 56 1e b7 3b 61 d3 23 be
       0.10874057 0.18381062 0.005588333 -0.15998603
000210 5f 8b c0 3b 9f 36 a4 3d 00 74 66 3e 25 a5 ee 3d
       0.0058759893 0.08018231 0.22505188 0.116525926
000220 3a fb 3b be c4 9f 4d 3e e3 58 bc 3b bc 9e 2a be
       -0.18357554 0.20080477 0.005747901 -0.16662115
000230 70 be 93 bc 82 52 82 3d af e5 3f 3e 1a dd 36 be
       -0.018035144 0.06363393 0.18739961 -0.17857781
000240 5d 0e 4c 3e 29 3b 64 3e f9 e3 8a bd b2 69 19 3e
       0.19927354 0.22288193 -0.067817636 0.14981726
000250 f0 9c 44 be b8 c4 33 3e fb 97 6a 3e cd e3 ce 3d
       -0.19200492 0.17555511 0.22909538 0.10102043
000260 ef fa 91 bd e0 c4 e9 bc 3e 01 bc bd c2 8e 32 3c
       -0.0712794 -0.02853626 -0.091799244 0.010898294
000270 ba 4b 43 3d b0 f9 03 3e cd 58 34 3e 75 66 04 be
       0.04767964 0.12888217 0.17612 -0.1292971
000280 e5 cc 9d 39 88 23 5b 3e ea f2 96 3d 51 56 11 3e
       0.00030098032 0.21400273 0.07370551 0.14193083
000290 69 e5 53 3e c4 39 16 be 73 5f 0e 3e 01 63 8e 3d
       0.20692982 -0.14670473 0.13903598 0.06952477
0002a0 f7 79 2a be 79 bd 2c 3e 79 54 4d 3e 9a f6 b7 3d
       -0.16648088 0.16869153 0.20051755 0.089825824
0002b0 8e 38 b0 3c 68 8b 34 3e 29 90 f1 3d 20 5f 56 3e
       0.021511342 0.17631304 0.117950745 0.20934725
0002c0 fb c9 5a be c4 a6 3a bd 28 3e 64 3e bc 86 fa bd
       -0.21366112 -0.045569196 0.22289336 -0.1223273
0002d0 55 73 76 be 65 fc 19 be 32 48 87 bc 70 0a 66 3d
       -0.24067433 -0.15037687 -0.016513918 0.056162298
0002e0 53 0f 18 3e 0c 46 8c 3d 3f 98 a1 bd 0c 26 f3 bd
       0.14849596 0.06849298 -0.07890367 -0.11872491
0002f0 77 79 29 be 4c 85 4f 3e 57 ac ff bd f2 5f 98 bd
       -0.16550241 0.20265692 -0.12484043 -0.07440175
000300 cb fd 43 3d 13 e3 74 be 86 87 e6 3d 9c 41 6b 3d
       0.047849458 -0.23914747 0.11256318 0.057435617
000310 2f ae 8e 3e 73 9e da bd b5 89 3d bd 63 65 4f 3d
       0.27867267 -0.10674753 -0.046273906 0.0506338
000320 93 b6 0c bd 91 17 9c bd 5f 3b 3b be 22 93 d4 3d
       -0.034353804 -0.076216824 -0.18284367 0.10379626
000330 74 91 53 be aa d7 d6 3d 85 48 5e 3e 1f 39 00 be
       -0.20660955 0.104903534 0.21707352 -0.1252179
000340 8d 8f 12 be ba 45 95 3d c8 59 42 be 28 6e 83 bc
       -0.14312573 0.0728869 -0.18979561 -0.016043738
000350 ad 37 4e 3e 7f 83 64 bd 81 24 cc bd 22 dd 9f bc
       0.20138426 -0.055789467 -0.099679 -0.019514624
000360 49 4b 20 be 54 17 e4 3d f9 92 68 3d 2d 53 a3 3d
       -0.15653719 0.11137262 0.05678079 0.07974849
000370 34 f5 b7 bd 50 c6 10 3e 8d a7 1e 3e e7 70 f6 3b
       -0.08982316 0.1413815 0.15493603 0.007520783
000380 16 1e c9 bd 54 a0 e7 bb c8 2d 2c be cf d6 73 bd
       -0.098201916 -0.007068673 -0.16814339 -0.05953103
000390 f8 74 4a be bb f4 6d be a0 91 0e be 9c d9 08 be
       -0.19771183 -0.23237889 -0.13922739 -0.13364261
0003a0 1b 4c 36 3e 99 24 0c bd c6 2c e8 bd 7a 03 f3 bd
       0.1780247 -0.03421459 -0.11336665 -0.118658975
0003b0 73 ba df bc 84 b5 35 bd 9e 15 79 3d de 44 22 be
       -0.027310586 -0.04436256 0.06081163 -0.15846583
0003c0 b9 11 d6 3d 0f e6 1e be dd 09 6a 3d 9c 53 19 bd
       0.10452599 -0.15517448 0.057138313 -0.03743325
0003d0 25 d4 56 3d fe 48 47 3c 1b 35 c1 bd 3e 41 e3 bc
       0.05244841 0.012163399 -0.09433957 -0.02774107
0003e0 87 1d b4 bd 19 c8 f6 bd 57 a5 41 bd 9f 1e 2f be
       -0.087946944 -0.12049884 -0.04727682 -0.17101525
0003f0 b2 7e e2 3d eb 05 8a bd c0 b1 02 bd 2f b3 9f 3d
       0.110593215 -0.0673941 -0.031907797 0.077978484

bias f4 [20]
000000 b0 a8 e6 3d 28 42 69 be 37 f6 5f be 1d 21 22 3d
       0.11262643 -0.22779143 -0.21871267 0.03958236
000010 92 8d b5 3e 5c aa 32 be 9f 86 81 bd e1 75 44 3c
       0.35459572 -0.174478 -0.06324505 0.011990995
000020 92 93 c2 bc 22 c4 39 be 83 95 5c be 79 2d 8b 3d
       -0.023752008 -0.18141225 -0.21541409 0.067957826
000030 0a 88 6d bb 74 88 95 3d 68 79 1c bc 8c 88 fd 3d
       -0.0036244416 0.07301417 -0.00955043 0.1237956
000040 7c fa 99 3d 35 71 02 be d8 37 21 be 07 a6 4e bd
       0.07518479 -0.12738498 -0.15743959 -0.050451305

weight f4 [20, 20]
000000 d1 6f 0b bd fb 62 2f be 64 dc 13 3c 1c fa 17 be
       -0.034042183 -0.17127602 0.009024713 -0.14841503
000010 b7 81 26 be 02 b9 c3 3d 84 51 9c bd aa 86 df 3d
       -0.1626042 0.09556772 -0.07632735 0.10914357
000020 4f 4a 60 be 81 17 f9 bd 39 41 23 be f6 80 7f 3c
       -0.21903346 -0.12162686 -0.15942849 0.0155947115
000030 a6 79 3c be 0b 87 24 be 8e 86 67 be 72 3b 0c bc
       -0.1840578 -0.1606714 -0.22609922 -0.008559095
000040 61 cc da 3d a0 6c 18 be 9e 12 61 be 49 99 03 3e
       0.106835134 -0.14885187 -0.21979758 0.12851442
000050 d6 11 41 be 7b 2d 0e 3e 20 b0 44 bd e6 83 ba 3d
       -0.1885446 0.13884537 -0.04801953 0.09107189
000060 87 e2 6e bd 29 43 a9 bd 36 42 a8 bd e2 00 d3 3c
       -0.058321502 -0.08264763 -0.08215754 0.025757257
000070 44 2b 12 be 32 c9 38 bd 5f 52 3d 3e 81 8e 28 3e
       -0.14274317 -0.04511375 0.18488453 0.16460611
000080 8e 7c 1e 3d 80 31 8b 3d db 09 42 3e 83 d8 33 be
       0.038693003 0.06796551 0.18949072 -0.17563061
000090 ec 96 26 3d 6c 14 b0 3d b9 6c 28 be 59 2a 33 be
       0.040671274 0.08597645 -0.16447724 -0.17496623
0000a0 60 f9 06 3d 48 43 01 be 25 97 08 be 14 8c 19 3e
       0.032952666 -0.12623322 -0.13338907 0.14994842
0000b0 46 1d 22 be de 80 1f be 2d 5b 5e 3d 17 32 0b 3d
       -0.1583148 -0.15576503 0.05428617 0.033983316
0000c0 7b 83 69 be 94 9f 06 be c5 1f 18 bd 28 cd 33 3e
       -0.22804062 -0.13146812 -0.037139673 0.1755873
0000d0 1b 10 ba 3d 23 2d 0d be 62 7b e2 3d 61 ab 99 3d
       0.09085103 -0.1378675 0.1105869 0.07503391
0000e0 27 77 4c 3e 12 7b 61 bd 4c 2d 9f bd 7c 3b 0d 3e
       0.19967328 -0.05504901 -0.077723116 0.13792223
0000f0 ed 48 38 3e d7 fe 50 3e 50 2b 5e be 9f d7 7d 3d
       0.17996569 0.20409714 -0.2169621 0.06197321
000100 4e a2 6c 3e 55 f7 88 bd 66 da 9d bd 80 cc 04 be
       0.2310879 -0.066878 -0.07707672 -0.12968636
000110 e7 6f 20 be ee 69 8a bd 93 ec 16 be 1d b0 21 3c
       -0.15667687 -0.06758486 -0.14738683 0.009868649
000120 58 28 49 be 01 ac a7 3d 5d 36 f7 bd f4 5c aa bd
       -0.19644296 0.08187104 -0.12070916 -0.08318511
000130 d6 11 97 3d ef b7 df bd 17 8d 81 3c 9d 76 56 be
       0.07376449 -0.109237544 0.015814347 -0.20943685
000140 d3 e0 3e 3e 55 56 26 3e 2b a6 de bd 48 8e 09 be
       0.18640451 0.1624387 -0.10871538 -0.13433182
000150 bd d6 08 be 90 45 3b be b8 8b 4a bd 13 52 6d bd
       -0.13363166 -0.18288255 -0.049449652 -0.0579396
000160 b1 68 27 3e 4d 75 51 3e 89 57 8a bd 65 50 65 be
       0.1634853 0.20454903 -0.06754977 -0.2239395
000170 04 bf f0 bc 74 5b 37 be 39 2f d6 bd a9 19 d3 3d
       -0.029387958 -0.1790598 -0.10458226 0.10307629
000180 65 b0 8f bd 96 3b 1f be 8c 9f 12 be 72 13 27 be
       -0.070160665 -0.15550074 -0.14318675 -0.16316012
000190 63 ef b0 3c c6 bd ab 3d 90 b0 52 3e f2 63 b9 3d
       0.021598523 0.08385806 0.20575166 0.09052266
0001a0 e8 40 46 bb 1b 00 f6 3d 23 d7 40 3e 46 79 41 3e
       -0.003025109 0.12011739 0.18832068 0.18893918
0001b0 ae f6 46 3e 2c 8a da bd 20 9f 03 3e 20 05 f7 bc
       0.19430038 -0.106708854 0.1285367 -0.030153811
0001c0 6b d4 d5 bd 8a d7 8e 3d 95 34 9d bd 5f 9a 15 3e
       -0.10440906 0.069747046 -0.07676045 0.14609669
0001d0 39 04 06 3e b9 9b 86 3d 81 be 4f bc d3 79 4a bd
       0.13087548 0.065726705 -0.012679697 -0.049432587
0001e0 d1 e2 0e 3e 78 f4 75 bd 7f 70 00 be 23 ec 12 3e
       0.13953711 -0.060047597 -0.12542914 0.14347892
0001f0 0c fa 76 3e 61 32 25 bd af be 27 3e 7b 13 e6 bd
       0.24118823 -0.04033125 0.16381334 -0.11234184
000200 f4 b2 0f 3d d7 cf e2 3c 9c ff 22 be 43 3c e6 bd
       0.035082772 0.027686996 -0.1591782 -0.11241963
000210 be d5 25 3d 62 49 17 be a8 a9 80 bd 61 c7 b8 3d
       0.040487044 -0.14774087 -0.06282359 0.090224035
000220 c1 31 3b 3e bf c8 f3 bd 59 10 6b be 00 87 b5 3c
       0.18280698 -0.11903524 -0.22955455 0.0221591
000230 c4 b2 e2 3d c1 9f a5 bd 8b 1d 5f 3e eb 40 a7 bd
       0.11069253 -0.08087111 0.21788613 -0.08166679
000240 26 75 30 bd 57 5a 33 3e 99 de 16 3e e9 92 5c 3e
       -0.04308047 0.1751493 0.14733352 0.21540417
000250 a1 b5 42 be 10 09 15 3d 15 e4 90 bc fe 3c 04 bd
       -0.19014598 0.036385596 -0.017686883 -0.03228473
000260 34 84 52 3e d6 d6 47 bd 11 6b 52 be 35 1d ae bd
       0.20558244 -0.048788868 -0.20548655 -0.085016645
000270 03 22 9c 3d 31 0b 36 3c 26 44 1b be de 66 d1 3d
       0.07623675 0.011111067 -0.15162715 0.102246985
000280 d7 78 1f 3d cc 2a 44 3d 2b 5f fe bd 7b 42 3e be
       0.0389336 0.047892377 -0.124204956 -0.18580048
000290 b7 54 d3 bd 7d cc 3f be a8 f2 53 be 31 91 02 be
       -0.103188924 -0.1873035 -0.20698035 -0.12750699
0002a0 da e8 03 be 98 85 f1 bd 62 7c e6 bd 26 05 38 3e
       -0.12881795 -0.11793059 -0.11254193 0.17970714
0002b0 03 01 b1 3d 1f b9 45 bd 66 09 82 3d 25 0c 14 3d
       0.08642771 -0.04827225 0.06349449 0.036144394
0002c0 aa 28 0a be b2 4f ff 3d 4f ea a0 3d 87 26 1b 3e
       -0.13492075 0.124663725 0.07857191 0.15151416
0002d0 51 77 06 3e 25 be c0 bd 6f bd f2 3d e1 4a 56 be
       0.13131453 -0.09411267 0.11852538 -0.20927002
0002e0 96 81 00 3e 80 55 32 3e 8a dd dc 3d 30 22 52 3e
       0.12549433 0.17415428 0.10784443 0.20520854
0002f0 15 c4 6d bc 6a 2e 0f be 2b 52 48 be 0e b8 3f 3e
       -0.014512082 -0.1398255 -0.19562595 0.18722555
000300 25 78 a1 bc c7 f9 1f 3e 6f 1e 3f 3e 2d 1b 09 3e
       -0.01971061 0.15622626 0.18663953 0.13389273
000310 9e f2 3b be 6f 3c 29 3c 2e b8 58 be ab 7f 3f be
       -0.1835427 0.01032935 -0.21164009 -0.18701045
000320 cd 4e d9 3d 96 46 dc 3d b1 8c be bc 28 5c a9 3d
       0.10610733 0.10755651 -0.023260446 0.082695305
000330 37 2f 00 3e 18 7a 7f bb 2d b1 a2 bd 00 10 1e bc
       0.12518011 -0.0038982686 -0.0794395 -0.009647369
000340 96 50 52 3d f0 e3 f3 bd fb 5b 30 bc c6 fa ef bd
       0.051346384 -0.1190871 -0.010764117 -0.11717753
000350 43 e0 b0 bd 4d 5e 38 be 03 14 d4 bd 44 a5 22 be
       -0.086365245 -0.18004723 -0.103553794 -0.15883356
000360 81 e7 4c 3d 0a 76 29 be b3 c3 7b bd b5 9e 04 be
       0.050025467 -0.16548935 -0.06146593 -0.12951167
000370 f0 b9 4d be 19 b6 35 be 9a 2b 4b be f1 11 fb 3d
       -0.20090461 -0.17745246 -0.19840851 0.122592814
000380 b1 4f 1a 3d 0a aa 4c bb 5e ad 15 bd 39 02 26 bd
       0.037673656 -0.003122928 -0.03654229 -0.040529463
000390 2f 33 10 3e f7 4e 3e 3c 76 2d b2 bd 87 a8 4e be
       0.14082025 0.011615506 -0.08700077 -0.20181476
0003a0 81 a8 d0 bd e1 2c f6 bd c4 0b c0 3d 45 72 6c 3d
       -0.101883896 -0.12020279 0.09377244 0.057726163
0003b0 f3 60 7e bd e5 47 5d be 1b 16 3d 3e 15 f2 5b 3c
       -0.062104177 -0.21609457 0.18465464 0.013424416
0003c0 5e ae 44 be 9f e0 0f 3e 82 1a 13 be 9f e4 a1 3d
       -0.19207141 0.1405053 -0.1436558 0.07904934
0003d0 88 17 b8 3d bf 61 6a be 07 e8 55 3e 46 61 95 bd
       0.08988863 -0.2288885 0.20889293 -0.07293944
0003e0 01 c3 af bd 54 fb 32 3e 7a 9c 36 3e 5e d1 41 3e
       -0.08582116 0.17478687 0.17833129 0.18927523
0003f0 dd ad 60 bd a2 41 6a 3d 51 9e 21 3e 0a f3 c1 3d
       -0.05485331 0.0571915 0.15783049 0.09470184

bias f4 [20]
000000 00 22 32 be ae 39 59 be 77 1e 31 be 5e 06 23 3e
       -0.17395782 -0.2121341 -0.17296778 0.15920398
000010 ca 22 ce bd a9 72 93 3c 3b d4 9d 3d 49 ae 4f be
       -0.10065229 0.01799901 0.077064954 -0.20281328
000020 9a 32 5c be 39 df 1b 3e a2 5c 0c be 4e 52 41 3d
       -0.21503678 0.15221871 -0.13707212 0.047197632
000030 9e 26 f7 3d e2 58 d6 3d ae 33 5e 3e 2e 99 ef bc
       0.120679125 0.10466172 0.21699402 -0.029247846
000040 23 31 11 3d b0 e4 34 be ad 78 b6 be 23 dc 57 3c
       0.03544725 -0.17665362 -0.35638943 0.013175043

weight f4 [19, 20]
000000 fa b2 1b be ac 59 fc ba e8 f9 d3 3d ad 01 e6 bb
       -0.15204993 -0.0019252799 0.103504 -0.0070192427
000010 7d 00 81 3d 1f 45 92 3c 64 3b 0d bd 71 31 13 3e
       0.06298921 0.017855225 -0.034480467 0.14374329
000020 18 91 ff 3d 1f 88 d2 bb 1d 7f 66 3d 17 6b 11 3e
       0.12478846 -0.0064249183 0.05627357 0.14201008
000030 87 cf 7e bd 0f f6 84 bd 10 ac da 3d c0 85 18 b9
       -0.062209632 -0.064922445 0.106773496 -0.00014545675
000040 cc e7 c9 bd 95 78 d8 3d b0 54 da bc 52 cf 54 3d
       -0.09858665 0.10569874 -0.02665171 0.05195553
000050 04 80 07 3f d0 5f ed 3d f9 d2 32 3f 53 0f 5b be
       0.5292971 0.115905404 0.6985317 -0.21392564
000060 78 5a 11 3e 79 20 32 3e 15 4f 8b bd a6 c7 a5 bd
       0.14194667 0.173952 -0.06802193 -0.080947205
000070 60 89 e0 3e 04 4d 2c 3e ac 6c 93 bd ce 4b eb be
       0.4385481 0.16826254 -0.07198462 -0.45956272
000080 54 aa b1 be 5c 02 aa 3b b0 0a 8c bc df 7e 11 3e
       -0.34700263 0.0051882695 -0.01709494 0.14208554
000090 ee cb ca bb 9a 84 26 be 78 05 3f bf 99 b5 b8 be
       -0.006188861 -0.16261521 -0.7461772 -0.36076048
0000a0 aa 44 83 bb 42 2c 3b bc bb 01 74 bb d0 b3 b7 3c
       -0.004005988 -0.011424126 -0.0037232477 0.022424608
0000b0 44 9d 11 bd e7 51 2f bc d1 b9 84 3c 3b c3 ab bc
       -0.03555037 -0.010700679 0.016201885 -0.020967117
0000c0 37 f8 91 bc f8 90 cf 3c 0c 51 94 bc d5 8b 83 3c
       -0.017818553 0.025337681 -0.018105052 0.016057888
0000d0 cb 6f 6e 3c 1d 17 47 3c 7e 55 0c 3d 19 20 93 bc
       0.014553021 0.012151507 0.03426122 -0.017959641
0000e0 e7 69 1c 3c b1 a6 83 bc df 70 b1 ba 7d 61 0f 3d
       0.009546733 -0.016070696 -0.0013537667 0.03500508
0000f0 e2 44 83 bb a3 2c 3b bc bf 01 74 bb b2 78 b7 3c
       -0.004006014 -0.011424216 -0.0037232486 0.02239642
000100 20 a3 11 bd 47 51 2f bc 9f bb 84 3c fb 60 a9 bc
       -0.03555596 -0.01070053 0.016202746 -0.020676127
000110 4c f9 91 bc cd 96 cf 3c 3f 10 95 bc 4b 93 83 3c
       -0.01781907 0.025340462 -0.018196223 0.016061446
000120 ee 04 6e 3c f6 16 47 3c 58 fa 0b 3d 9f 1b 93 bc
       0.0145275425 0.01215147 0.034174293 -0.017957507
000130 7d 6c 1c 3c cb a6 83 bc 46 71 b1 ba f7 92 12 3d
       0.00954735 -0.016070744 -0.0013537786 0.035784688
000140 20 f5 c9 b5 65 35 ed 34 c3 8e 24 36 34 96 6e b6
       -1.5047008e-06 4.418354e-07 2.4521003e-06 -3.5552193e-06
000150 ca 37 8a 35 2c d2 b3 35 29 18 93 35 98 00 4a b6
       1.0298038e-06 1.3397707e-06 1.0959385e-06 -3.0100691e-06
000160 71 12 5d 36 c4 f3 55 b6 87 02 db 35 8e 0d ef b5
       3.29423e-06 -3.1881364e-06 1.6317507e-06 -1.7810833e-06
000170 eb 04 58 b6 7a fe 33 b6 c9 31 2b 36 27 e1 5b b6
       -3.218937e-06 -2.6821203e-06 2.5509964e-06 -3.27646e-06
000180 b8 d9 0c 36 1c f6 44 b6 20 65 47 36 4b a6 e1 35
       2.0988355e-06 -2.934953e-06 2.9712173e-06 1.6812204e-06
000190 e9 0d b0 b5 68 85 cd b5 9a 32 e2 b5 23 6d 83 b6
       -1.311707e-06 -1.5312517e-06 -1.6853039e-06 -3.9168094e-06
0001a0 bc 88 27 35 0b 0c 5d b6 12 3f 39 36 a3 2f 1d b6
       6.241132e-07 -3.2938576e-06 2.760386e-06 -2.3422551e-06
0001b0 0f b1 52 36 28 f4 b3 35 55 41 84 b6 95 ce f5 b4
       3.13955e-06 1.3407598e-06 -3.941512e-06 -4.5785114e-07
0001c0 5a 18 df b4 c7 39 a3 34 a6 8d 12 b6 45 ad 4e b6
       -4.1554705e-07 3.0403154e-07 -2.1838146e-06 -3.0797248e-06
0001d0 47 dd 34 b6 f3 44 1e 36 ef df 22 b6 f0 9a 04 35
       -2.695089e-06 2.3583968e-06 -2.4270228e-06 4.9399296e-07
0001e0 f9 71 07 36 10 0e 1c 36 6a 99 23 b6 1d 95 c3 b5
       2.0182908e-06 2.3253997e-06 -2.4378191e-06 -1.457203e-06
0001f0 58 b8 12 36 10 1e 37 36 36 60 18 b6 ec cc a0 34
       2.1862998e-06 2.7286624e-06 -2.2705767e-06 2.9951423e-07
000200 b6 28 6f b6 45 9b 1c 35 f2 aa 68 35 07 e4 2d 36
       -3.5637472e-06 5.8340476e-07 8.6675493e-07 2.5911738e-06
000210 a3 b5 9b b5 ba bd 4e 36 65 4f 3c 36 5d d7 b2 35
       -1.1601263e-06 3.0806827e-06 2.8060397e-06 1.3324712e-06
000220 05 1c 2a 36 1a e6 86 b6 ce 3e ca 35 24 57 02 b6
       2.5348284e-06 -4.0202985e-06 1.5068451e-06 -1.9422232e-06
000230 bf 55 dc 35 8a f0 b9 35 c6 e8 17 36 7e 9d 47 36
       1.6416233e-06 1.385358e-06 2.2636245e-06 2.9744983e-06
000240 74 80 23 36 80 eb 44 b6 d0 4c 45 36 44 40 d6 b4
       2.4363662e-06 -2.9343355e-06 2.9399998e-06 -3.9907366e-07
000250 2f bc 75 b6 8d 77 a6 b3 bb 9a 53 b6 22 9e 25 36
       -3.6617382e-06 -7.7517235e-08 -3.1531515e-06 2.4678961e-06
000260 fd 49 1f b6 b8 c5 0d b6 07 68 50 36 28 25 18 36
       -2.3735913e-06 -2.1125725e-06 3.1054967e-06 2.2671393e-06
000270 5b 5c 37 36 15 88 fb 34 f8 f9 5b b4 42 e4 70 b3
       2.7322883e-06 4.6851406e-07 -2.0486902e-07 -5.6086954e-08
000280 56 84 3c 36 cd 2a 39 36 e3 50 37 36 0c 55 f2 35
       2.8091213e-06 2.7592062e-06 2.7316207e-06 1.8055157e-06
000290 6f da 1e 35 4e 0f b7 b5 3b 8b 6e b6 21 d8 3e 36
       5.917745e-07 -1.3639017e-06 -3.5545806e-06 2.843801e-06
0002a0 94 d8 24 36 58 d5 45 b6 1f 05 41 36 8b 81 8d b5
       2.456397e-06 -2.947947e-06 2.8762222e-06 -1.0543021e-06
0002b0 ba 4e 1a b6 75 d0 14 35 b9 41 e0 b5 fc dd 35 b6
       -2.2993613e-06 5.543764e-07 -1.6708428e-06 -2.7100314e-06
0002c0 de 70 3d 36 de d7 3c 36 a9 b9 24 36 d8 ce 23 36
       2.8228892e-06 2.8139834e-06 2.4545973e-06 2.4409292e-06
0002d0 61 cb 10 33 e8 32 a2 b5 2c d6 c5 b3 78 3b 47 36
       3.3712585e-08 -1.2084756e-06 -9.212485e-08 2.9687926e-06
0002e0 86 35 6d b5 c9 47 34 36 67 ae 90 36 27 55 4a b6
       -8.8367267e-07 2.6863875e-06 4.3118375e-06 -3.014991e-06
0002f0 f4 20 37 b6 22 94 35 b6 41 d6 3a b6 08 48 df 35
       -2.7288306e-06 -2.7057326e-06 -2.7840872e-06 1.6635759e-06
000300 3e 77 41 36 2d e6 1e b6 b3 79 42 36 5f 1f 2c b6
       2.882865e-06 -2.3677815e-06 2.897909e-06 -2.5648258e-06
000310 6b 58 65 b6 58 ae 48 36 6d a7 df b5 fe c7 48 36
       -3.4175125e-06 2.9903804e-06 -1.6663522e-06 2.9918733e-06
000320 ff a8 44 b6 1f 96 e8 b5 dc a4 70 b5 b5 f5 19 36
       -2.9304645e-06 -1.7329038e-06 -8.964687e-07 2.2941797e-06
000330 32 e8 65 b6 aa c4 4c b6 88 75 1c 34 aa 8a 36 36
       -3.4258815e-06 -3.0512842e-06 1.457139e-07 2.7200826e-06
000340 be ab c9 b5 16 e1 24 b6 d8 ff de b5 99 e6 45 36
       -1.502565e-06 -2.4568922e-06 -1.6614749e-06 2.9489513e-06
000350 f3 b7 61 b6 5e 6f 35 b6 48 4c 13 36 f2 c4 3f 36
       -3.3634685e-06 -2.7035926e-06 2.1949108e-06 2.8575855e-06
000360 71 1a 4a 36 6f e6 4b b6 e5 ca fc b5 2c e7 16 b6
       3.0115737e-06 -3.0383487e-06 -1.8834513e-06 -2.2486302e-06
000370 c3 79 e3 35 4a f1 fb 34 15 d1 18 36 88 b6 fe 35
       1.6948255e-06 4.6927954e-07 2.2771467e-06 1.8977598e-06
000380 00 3b 50 36 2e e7 07 b6 d3 2f 37 b6 25 bc 19 36
       3.1028758e-06 -2.0251132e-06 -2.7296962e-06 2.2908291e-06
000390 b1 8a 10 36 7f b2 55 b6 30 ae 5b b6 24 03 38 35
       2.1538401e-06 -3.1843372e-06 -3.2734933e-06 6.854991e-07
0003a0 cf 3e 2b 36 1f 28 d9 35 3c 8c 3a b6 31 84 41 36
       2.5517545e-06 1.6179437e-06 -2.7797787e-06 2.8836187e-06
0003b0 cf de 5b 36 80 11 41 36 b0 27 ac b4 b5 9d 11 b6
       3.2763235e-06 2.8769427e-06 -3.2066373e-07 -2.1698481e-06
0003c0 f8 92 25 36 fb 92 64 36 bd 84 e6 b5 9f f6 99 35
       2.4672463e-06 3.4060201e-06 -1.7174967e-06 1.1471164e-06
0003d0 91 bb 8c b5 d7 7c 73 b5 c5 1d 3c 36 10 87 5c b6
       -1.0485402e-06 -9.070622e-07 2.8031511e-06 -3.2861171e-06
0003e0 7e 10 25 b6 cf fd b0 34 98 fc 31 b6 60 0b 5b 36
       -2.4596516e-06 3.2967225e-07 -2.6522084e-06 3.2640164e-06
0003f0 64 43 6d 36 c7 1a e6 b5 3a 47 f5 35 ef 74 9e 35
       3.5354979e-06 -1.7144129e-06 1.8274652e-06 1.180595e-06

bias f4 [19]
000000 c7 c1 10 3e 24 e3 6d 3e 06 7e 98 3d 55 41 9f 3d
       0.1413642 0.23231179 0.07445912 0.07776133
000010 ea 0f 29 b6 4d 27 a9 b5 df 8e 7b 36 ce ce 2e b6
       -2.5192226e-06 -1.2602919e-06 3.7485077e-06 -2.6048397e-06
000020 28 80 53 33 bc c0 61 36 06 f3 21 b6 db 4d 33 b6
       4.9243823e-08 3.3639799e-06 -2.4132328e-06 -2.6718396e-06
000030 c8 b4 19 b6 d4 73 37 b6 0f 7f 20 b5 59 56 db 33
       -2.2904005e-06 -2.7336546e-06 -5.978954e-07 1.0213689e-07
000040 e0 ce ed b5 6c e7 5c 36 e7 12 af b5
       -1.7718085e-06 3.291726e-06 -1.3044017e-06
