src/gantry_crane_controller/pinn_models/Model 8 input 100 param dHa ass FIX nop tet jit.pt (torch, 16933 bytes, 8 tensors)

weight f4 [20, 8]
0	0x3f0fc0bc	0.56153464
1	0x3c8ebc66	0.01742382
2	0x3f4fd5e0	0.8118572
3	0xbd0ad3eb	-0.033893507
4	0x3e179837	0.14804159
5	0xbe0f91fa	-0.1402053
6	0xbe9d8a00	-0.30769348
7	0xbea7dbca	-0.32784873
8	0x3edee456	0.43533581
9	0xbdc56e67	-0.09640198
10	0xbf679f39	-0.9047733
11	0xbe4c543d	-0.1995401
12	0xbd2f7439	-0.042835448
13	0xbe3739f6	-0.17893204
14	0x3e4461d5	0.19177945
15	0x3f18c551	0.5967608
16	0x3dc328b1	0.09529246
17	0x3ea2695b	0.31721005
18	0xbf757ba2	-0.95891774
19	0xbf42bcc3	-0.7606928
20	0x3e5d1aba	0.21592227
21	0x3e01c369	0.126722
22	0xbef73c04	-0.48287976
23	0xbe6c4973	-0.23074894
24	0xbdf5055f	-0.11963915
25	0x3da32bc7	0.07967334
26	0xbfb7e3fb	-1.4366449
27	0xbf69d2c1	-0.9133721
28	0x3d7e698b	0.062112372
29	0x3d01cf60	0.03169191
30	0x3e787c6f	0.24266218
31	0x3e20c2b9	0.15699281
32	0x3d7032f6	0.05864235
33	0xbd856653	-0.065136574
34	0xbfd44886	-1.6584632
35	0x3f234363	0.637747
36	0xbdbeb4f6	-0.09311859
37	0x3c89821d	0.016785676
38	0xbebb7f2f	-0.3662047
39	0x3f64d995	0.89394504
40	0x3ce07b59	0.027402567
41	0xbe830473	-0.25589332
42	0xbf055e44	-0.5209696
43	0xbe55961a	-0.2085804
44	0x3ef08595	0.46976915
45	0x3e049549	0.12947573
46	0xbe45b801	-0.19308473
47	0x3eab000b	0.3339847
48	0x3fbef2b1	1.4917814
49	0xbcfa9845	-0.030590186
50	0xbed290d1	-0.4112611
51	0x3dc34468	0.09534532
52	0xbdf67885	-0.12034706
53	0xbe4bf235	-0.19916613
54	0x3f37d7c5	0.71813613
55	0xbe8e169c	-0.27751625
56	0x3dd3f6bb	0.103497945
57	0xbd64a2a1	-0.055819158
58	0xbe85adf2	-0.26109272
59	0x3d140652	0.03613884
60	0x3c5a835e	0.013336984
61	0x3cd10895	0.025516788
62	0xbf3460a9	-0.7045999
63	0xbe9c16ac	-0.30486047
64	0xbee1b63a	-0.4408434
65	0x3dff5845	0.12468008
66	0xbea74feb	-0.3267816
67	0xbe49bcfe	-0.19701001
68	0xbd99f338	-0.075170934
69	0xbe627699	-0.22115554
70	0x3e74d3b8	0.2390889
71	0x3eab72af	0.33485934
72	0x3f052341	0.5200692
73	0x3e3c8d29	0.18413223
74	0xbe2f1b1c	-0.17100185
75	0x3f0a251f	0.5396289
76	0xbdaed32b	-0.08536371
77	0xbe386ba8	-0.18009818
78	0xbf20a189	-0.62746483
79	0x3da85e57	0.08221119
80	0x3fae6d74	1.3627152
81	0xbcc6f2b4	-0.024285652
82	0xbfd947fe	-1.6975095
83	0xbccca753	-0.02498213
84	0x3e306554	0.17226154
85	0xbdda93ad	-0.10672698
86	0x3e68c7b8	0.22732437
87	0x3ec66887	0.38751623
88	0x3f2b9de6	0.6703781
89	0x3d9b5d69	0.07586176
90	0x3f093b04	0.53605676
91	0xbd3af7af	-0.045646366
92	0xbd2d8f91	-0.042373244
93	0x3e20e76a	0.15713277
94	0xbecf184b	-0.40448222
95	0xbe9ac1ec	-0.30226076
96	0x3ea505c8	0.32230973
97	0xbd5e7ad3	-0.054316353
98	0x3dd2af2b	0.10287317
99	0xbe873ba8	-0.26412702
100	0x3ce46db4	0.027884342
101	0xbdf31298	-0.11868781
102	0x3d00d05d	0.03144871
103	0x3f14cd15	0.5812543
104	0xbc67e7e3	-0.014154407
105	0xbddecc04	-0.10878757
106	0x3fa2dabb	1.2723001
107	0x3e090976	0.13382515
108	0xbca5ed2d	-0.020254696
109	0x3c18b329	0.009320059
110	0x3e8590fb	0.26087174
111	0xbfab981b	-1.3405794
112	0x3bb36c33	0.005475545
113	0x3cfb0163	0.03064031
114	0x3f161189	0.58620507
115	0x3e90296a	0.28156596
116	0xbc9085f9	-0.017642008
117	0x3c788f84	0.015170936
118	0xbef8374a	-0.48479682
119	0xbf08e6cc	-0.5347717
120	0x3f8e0129	1.1094104
121	0xbd1e4861	-0.038643245
122	0xbf4bd9e2	-0.7962934
123	0xbf158263	-0.5840208
124	0x3e41bf3d	0.18920608
125	0x3e73a643	0.23793893
126	0xbe03818d	-0.12842388
127	0x3c5f50cb	0.013630102
128	0x3e7fbfa7	0.24975453
129	0xbe7154f4	-0.23567563
130	0x3e7dff4c	0.2480442
131	0xbeefc0d6	-0.4682681
132	0xbdd3c357	-0.103399925
133	0x3e2d40d6	0.16919264
134	0xba8d6049	-0.0010786142
135	0xbed14525	-0.40873066
136	0xbe8b36ad	-0.27190152
137	0xbd193dad	-0.037412334
138	0x3f3011a8	0.6877694
139	0xbf6b91e8	-0.9201951
140	0x3d551463	0.052021395
141	0xbe42046b	-0.18946998
142	0xbedd82ad	-0.4326376
143	0xbecb3273	-0.39686927
144	0xbeb3373b	-0.35003075
145	0xbd6827a8	-0.056678444
146	0xbf0510d6	-0.51978815
147	0x3f1a3cfb	0.602493
148	0xbde42ab8	-0.111409605
149	0x3e50db37	0.20396124
150	0x3e4722dc	0.19446892
151	0xbedbbb15	-0.4291617
152	0xbef61635	-0.48063818
153	0x3b0b1775	0.0021223698
154	0xbf864e80	-1.0492706
155	0xbefd4f25	-0.49474445
156	0x3e79a06c	0.24377602
157	0xbe7820ea	-0.24231306
158	0xbe97e260	-0.29664898
159	0xbeb13087	-0.34607336

bias f4 [20]
0	0x3dbb1398	0.091345966
1	0x3e64b1db	0.22333471
2	0xbeef3919	-0.4672325
3	0xbd0cef90	-0.034408152
4	0x3e2973a7	0.16548024
5	0xbe99764c	-0.29973066
6	0x3e15f83e	0.14645478
7	0xbeb628f4	-0.3557812
8	0xbeae0d59	-0.33994558
9	0xbf62285f	-0.8834285
10	0xbf10c2f4	-0.56547475
11	0xbec6ce00	-0.3882904
12	0x3ebb3bce	0.36569065
13	0xbf17649d	-0.591379
14	0xbd88b95c	-0.066759795
15	0x3d9d1f4f	0.07671987
16	0xbf29dae1	-0.6634961
17	0xbe53dce0	-0.20689726
18	0xbf8e9c67	-1.114148
19	0xbee36474	-0.44412577

weight f4 [20, 20]
0	0x3eb3e23f	0.3513355
1	0xbdb4c166	-0.0882595
2	0x3e589e22	0.21154073
3	0x3f02e924	0.51136994
4	0xbefc7982	-0.49311453
5	0x3bbc22f2	0.0057414705
6	0xbdcf02dd	-0.10107968
7	0xbeb669b8	-0.35627532
8	0x3e3ef294	0.18647224
9	0xbe847bcf	-0.25875708
10	0xbf1105ab	-0.56649274
11	0x3ba6ab7d	0.005086361
12	0x3e432f01	0.190609
13	0x3ca7267a	0.02040409
14	0xbe9feebb	-0.31236824
15	0x3edfebe0	0.43734646
16	0x3e94f63d	0.29094115
17	0x3da9cc1c	0.08290884
18	0xbec67dfa	-0.38767987
19	0xbe08c546	-0.13356504
20	0xbe603873	-0.21896534
21	0xbe8d36f3	-0.27580985
22	0x3d99d366	0.07511024
23	0x3e4d4379	0.2004527
24	0xbee4bd1a	-0.44675523
25	0x3de97fb7	0.11401313
26	0xbef157ab	-0.47137198
27	0x3d87d231	0.06631888
28	0x3dbc1fc0	0.09185743
29	0xbdf6ed47	-0.12056976
30	0x3e4c1803	0.19931035
31	0x3db72a83	0.08943655
32	0xbd9a1c4e	-0.0752493
33	0xbd9f6ec7	-0.07784801
34	0xbd59574d	-0.053061772
35	0xbd59d92c	-0.053185627
36	0x3ce84200	0.028351784
37	0xbdc24b00	-0.09486961
38	0x3d8a5491	0.06754411
39	0x3dbe9197	0.09305113
40	0x3e1c0e8f	0.15239929
41	0x3ea5831b	0.32326588
42	0x3e08b5fd	0.13350673
43	0x3f005cde	0.50141704
44	0xbe864f6c	-0.2623247
45	0xbd45493d	-0.04816555
46	0xbce923e2	-0.028459493
47	0x3dbeb728	0.09312278
48	0x3e5f342e	0.21797249
49	0x3e0e8993	0.13919668
50	0x3ecb3619	0.3968971
51	0xbd4f4bae	-0.050609283
52	0xbc9785aa	-0.018496353
53	0x3d27352e	0.0408222
54	0xbe3f3046	-0.18670759
55	0x3dda390f	0.10655414
56	0x3e3fad48	0.18718445
57	0x3e756e8c	0.23967952
58	0x3c157941	0.009123147
59	0xbe3959d6	-0.18100676
60	0xbe76f5ac	-0.24117154
61	0x3e106614	0.1410144
62	0xbeeb843a	-0.45999318
63	0xbe398eaa	-0.18120828
64	0x3d97a81e	0.07405113
65	0xbdda7431	-0.10666693
66	0xbe2db913	-0.16965131
67	0x3f0327cf	0.5123262
68	0x3e51b75d	0.20480104
69	0xbee43407	-0.44570944
70	0xbed4a786	-0.4153406
71	0xbe4e6a29	-0.20157684
72	0x3e974db7	0.2955148
73	0xbf3262fe	-0.696823
74	0xbd4e8649	-0.050421033
75	0xbe5936a6	-0.21212253
76	0xbe3c34cc	-0.18379515
77	0xbda484a5	-0.080331124
78	0xbd72ad2f	-0.059247192
79	0x3eccf81c	0.40033042
80	0xbe3ce846	-0.1844798
81	0x3d0668cf	0.032814797
82	0x3dba9981	0.0911131
83	0x3e3ad4ee	0.18245289
84	0x3e58aece	0.21160433
85	0x3daf8437	0.0857014
86	0x3d77687e	0.060402386
87	0xbe7d986b	-0.24765174
88	0x3d2aa751	0.04166347
89	0x3e661c74	0.22471792
90	0x3d03b70f	0.032157
91	0x3e2be8a7	0.16787969
92	0x3d99c411	0.075081
93	0x3e315235	0.17316516
94	0xbe6664f3	-0.22499447
95	0x3d8978cf	0.067124955
96	0x3e635461	0.22200157
97	0x3dc4dee1	0.09612823
98	0xbe548c22	-0.20756581
99	0x3d875b8f	0.0660926
100	0xbe44546b	-0.19172828
101	0xbd7c2b3a	-0.06156466
102	0x3e95410e	0.29151195
103	0xbd9c7a45	-0.076405086
104	0xbc881b2c	-0.016614519
105	0x3dbf1cdb	0.093316756
106	0xbe4ba035	-0.19885333
107	0x3edf3502	0.4359513
108	0xbdc79941	-0.09746028
109	0x3e610352	0.21973923
110	0xbe0d71b2	-0.13812903
111	0xbe2d33c7	-0.16914283
112	0xbe40159b	-0.18758242
113	0xbe2b998e	-0.16757795
114	0x3e14bb3a	0.14524546
115	0x3e258830	0.16165233
116	0xbe178799	-0.1479782
117	0x3c53277c	0.012887832
118	0xbe41b008	-0.18914807
119	0x3db4207c	0.087952584
120	0xbd5da571	-0.054112855
121	0x3f0962b3	0.5366623
122	0xbd47b977	-0.048760857
123	0xbea15364	-0.31508934
124	0xbe7b6b0b	-0.24552552
125	0x3e80d789	0.2516444
126	0x3f1fc67a	0.62412226
127	0xbde93a03	-0.11388018
128	0xbe6bc681	-0.23024942
129	0xbe3303bc	-0.17481893
130	0x3da68d2c	0.08132395
131	0xbd09a65c	-0.03360592
132	0x3f1f576a	0.6224276
133	0xbf139448	-0.57648134
134	0xbe454c57	-0.19267403
135	0x3e09f1dc	0.13471168
136	0x3c327208	0.010891445
137	0xbd339de8	-0.043851763
138	0xbf640b51	-0.8907977
139	0xbe9d435f	-0.30715463
140	0xbd06c38d	-0.032901336
141	0xbe221092	-0.15826634
142	0xbe1b9351	-0.15192915
143	0x3e2a513c	0.16632551
144	0xbe98905d	-0.2979764
145	0x3de376bb	0.111066304
146	0xbe72151c	-0.23640865
147	0xbe5f7d62	-0.21825173
148	0x3e4b54ad	0.1985652
149	0xbe87aef7	-0.26500675
150	0xbf06b415	-0.52618533
151	0xbe6b70e2	-0.2299228
152	0x3c400df1	0.011722074
153	0x3e6b1b00	0.22959518
154	0xbd3c3772	-0.045951314
155	0xbe84374b	-0.25823435
156	0xbdf53cf2	-0.11974515
157	0xbc6ab3ee	-0.014325125
158	0xbcb35a1e	-0.021893557
159	0xbdc03abe	-0.09386204
160	0xbd46e4d8	-0.048558086
161	0xbe2d6dc0	-0.16936398
162	0xbdd45ada	-0.10368891
163	0x3ece0c2d	0.40243664
164	0x3e19e25f	0.1502776
165	0xbe6a84f2	-0.22902277
166	0xbef42df6	-0.47691315
167	0x3d978e8b	0.07400235
168	0x3e965a52	0.29365784
169	0x3e1b1483	0.15144543
170	0xbeb6fda1	-0.35740378
171	0x3e9279bc	0.286085
172	0xbd09d9d5	-0.033655006
173	0x3eb18ae4	0.34676278
174	0x3ea9463c	0.33061397
175	0xbd6c8d64	-0.057752028
176	0x3d00e1b2	0.03146524
177	0xbe25a27c	-0.16175264
178	0xbebfbf15	-0.37450472
179	0x3a5ed894	0.00085009006
180	0x3d827d48	0.06371552
181	0x3e295325	0.16535623
182	0xbec6197f	-0.38691327
183	0xbec37fc5	-0.38183418
184	0xbe4a349a	-0.19746628
185	0xbd4f299d	-0.050576795
186	0x3dec775c	0.115462035
187	0x3e49cdcd	0.19707413
188	0xbe9fae75	-0.31187788
189	0xbeaf24b7	-0.342077
190	0xbe71635f	-0.23573063
191	0xbe912bc7	-0.28353712
192	0x3e05236f	0.13001798
193	0xbe8a69a7	-0.2703373
194	0x3e845a70	0.25850248
195	0x3f2edde9	0.6830736
196	0xbdde3f23	-0.10851886
197	0xbeae7011	-0.34069875
198	0x3e818787	0.25298712
199	0xbed0e4f6	-0.40799683
200	0xbe940e8d	-0.2891735
201	0xbe01734d	-0.1264164
202	0xbe90e973	-0.28303108
203	0xbf072a77	-0.5279917
204	0xbf4331b7	-0.76247734
205	0xbe9b7a2a	-0.3036664
206	0xbe8e58ad	-0.2780203
207	0x3e44967c	0.1919803
208	0x3d19f47a	0.037586667
209	0xbf27f349	-0.656056
210	0xbf0f8a81	-0.56070715
211	0xbe87c361	-0.2651625
212	0xbe4654d1	-0.19368292
213	0xbf423fcd	-0.758786
214	0x3ec913ca	0.3927291
215	0x3f10981f	0.5648212
216	0xbe58cec9	-0.21172632
217	0xbebaa5db	-0.36454663
218	0x3ef28eb6	0.47374505
219	0x3da0637e	0.07831477
220	0x3e307ddb	0.1723551
221	0x3eb0ad98	0.34507442
222	0x3ec50876	0.38483018
223	0x3e81e4a1	0.25369743
224	0xbe479647	-0.1949092
225	0x3eaa3fb7	0.33251736
226	0x3ede3b9c	0.43404853
227	0x3f02f2c7	0.511517
228	0x3d3917a7	0.045188572
229	0x3e267f16	0.16259417
230	0x3eb142d4	0.34621298
231	0xbe7e7a6b	-0.24851386
232	0xbe8ede0e	-0.2790379
233	0xbe877c14	-0.26461852
234	0xbcb4e52f	-0.02208194
235	0x3eeca882	0.4622231
236	0x3df6b424	0.12046078
237	0x3ea95942	0.3307591
238	0x3e989cc5	0.29807106
239	0x3dd2edb6	0.10299246
240	0x3f41a8c2	0.7564813
241	0xbf2c3575	-0.6726907
242	0xbea398e8	-0.31952596
243	0xbf3dc9ad	-0.7413586
244	0xbfbaa6b7	-1.4582127
245	0xbe91b148	-0.28455567
246	0x3eb34295	0.35011736
247	0x3b9b2713	0.0047348826
248	0xbecef405	-0.40420547
249	0xbe4c2300	-0.19935226
250	0xbf3930fa	-0.7234036
251	0x3e29c7cb	0.16580121
252	0xbe48167f	-0.19539832
253	0x3f7c040a	0.98443663
254	0x3f1b5821	0.6068135
255	0x3e081c55	0.13292058

bias f4 [20]
0	0x3f262020	0.6489277
1	0xbf0cbc24	-0.5497458
2	0xbea26e71	-0.31724885
3	0x3df18238	0.117924154
4	0x3dfff446	0.12497763
5	0xbef7655d	-0.48319522
6	0x3e727e39	0.23680963
7	0x3daf3ac9	0.08556134
8	0x3e92bd3f	0.28660008
9	0x3df64921	0.12025667
10	0xbefdde8a	-0.49583846
11	0xbef6290a	-0.48078185
12	0xbd8dc3be	-0.069221005
13	0xbedce9f1	-0.43147233
14	0x3edaa544	0.42704213
15	0xbe30c504	-0.17262655
16	0x3f68bf10	0.9091654
17	0xbdcffdfd	-0.10155866
18	0x3d49b3fd	0.049243916
19	0x3e8377f9	0.2567747

weight f4 [20, 20]
0	0x3e80fb03	0.25191507
1	0xbddbdfdc	-0.10736057
2	0xbe7ffc24	-0.24998528
3	0xbe087494	-0.13325721
4	0xbd272bb2	-0.040813155
5	0xbe147a9e	-0.144999
6	0xbec070fb	-0.37586197
7	0x3e610fd8	0.219787
8	0xbd178b6d	-0.0369982
9	0xbe19b38a	-0.15009895
10	0xbebddbce	-0.3708176
11	0xbe273e94	-0.16332465
12	0xbec66322	-0.38747507
13	0xbf0195ac	-0.50619006
14	0x3e81b4e2	0.25333315
15	0x3e17b35f	0.14814518
16	0x3e03d90a	0.12875763
17	0x3ee8e750	0.45488977
18	0x3e13dbba	0.14439288
19	0x3e634746	0.22195157
20	0xbe77d0ae	-0.24200699
21	0xbe44605b	-0.19177382
22	0x3d4b46d3	0.04962809
23	0xbe3c35e5	-0.18379934
24	0xbe89993d	-0.26874724
25	0xbdd50201	-0.10400773
26	0xbe8cd9ba	-0.27509862
27	0x3bc06bd0	0.0058722273
28	0x3e9915dd	0.29899493
29	0x3ecd6f82	0.40124136
30	0x3e18caeb	0.14921157
31	0xbe5d3b86	-0.21604738
32	0x3d7592f4	0.0599546
33	0xbdbe1e35	-0.09283105
34	0xbe251e38	-0.16124809
35	0xbd495efc	-0.04916285
36	0xbd346c2a	-0.044048466
37	0x3e57f60c	0.21089953
38	0x3ebc9d33	0.36838683
39	0x3ec4e94e	0.38459247
40	0x3e997060	0.29968548
41	0x3df315d9	0.118694015
42	0xbe941473	-0.28921852
43	0x3a9fd728	0.0012194859
44	0x3e3253a2	0.17414716
45	0xbd82417f	-0.06360149
46	0xbe5013de	-0.20320079
47	0xbdbb261b	-0.091381274
48	0xbe23662a	-0.15956941
49	0x3c1fabb8	0.009745531
50	0xbdce0aa2	-0.10060622
51	0xbebb9fa0	-0.36645222
52	0xbe31f253	-0.17377596
53	0xbe4b62a0	-0.19861841
54	0x3e50efa4	0.20403916
55	0xbdefdbe1	-0.117118604
56	0x3e669a84	0.2251988
57	0x3eb178b3	0.346624
58	0x3d041e7f	0.032255646
59	0xbdc061b0	-0.093936324
60	0x3eff40cb	0.4985412
61	0xbe1a74eb	-0.15083663
62	0xbe6c0201	-0.2304764
63	0xbee4419f	-0.44581315
64	0x3d528205	0.051393528
65	0xbe0f5628	-0.1399771
66	0xbef3e5a0	-0.47636127
67	0x3d52ed83	0.05149604
68	0x3eb64ffd	0.356079
69	0x3d663be4	0.05620946
70	0xbe7afa13	-0.24509458
71	0xbeb779f4	-0.3583523
72	0xbf1266d5	-0.5718816
73	0x3d4fe581	0.05075598
74	0x3edc2ca4	0.43002808
75	0xbe3c4144	-0.18384272
76	0x3e0043c2	0.12525848
77	0x3e868f61	0.26281264
78	0x3e50db55	0.20396169
79	0x3e243311	0.16035105
80	0x3f01c3d1	0.5068942
81	0xbcb4c38e	-0.022065904
82	0xbeaf1187	-0.3419306
83	0xbe18b894	-0.14914161
84	0x3d7e9949	0.062157903
85	0xbe5e18fd	-0.2168922
86	0xbe61438f	-0.21998428
87	0x3e21d7c8	0.1580497
88	0x3dbaa964	0.0911434
89	0xbe817710	-0.2528615
90	0xbecd5268	-0.40101933
91	0xbed08952	-0.40729767
92	0xbe283e8e	-0.16430113
93	0xbe92bbea	-0.28658992
94	0x3ea33361	0.31875136
95	0xbe195257	-0.14972816
96	0x3e673b84	0.22581297
97	0x3e42a6ab	0.19008891
98	0x3de3ae93	0.11117282
99	0x3dc5c179	0.096560426
100	0x3e8d38fc	0.27582538
101	0xbe47e6c7	-0.19521628
102	0xbe2353b4	-0.15949899
103	0xbd23ef13	-0.04002292
104	0x3d728a62	0.059214003
105	0xbe5fc284	-0.21851546
106	0xbeb4a0b4	-0.35278857
107	0x3e0923a2	0.13392499
108	0xbdacbb4b	-0.08434161
109	0xbe29aaff	-0.16569136
110	0xbf1a8509	-0.60359246
111	0x3ab1065a	0.0013505921
112	0xbf24e0ef	-0.6440572
113	0xbea6eada	-0.32601053
114	0x3e18a013	0.14904813
115	0xbe54d651	-0.2078488
116	0x3d9d0302	0.07666589
117	0x3f009881	0.502327
118	0x3e113525	0.1418043
119	0x3eae3c4d	0.3403038
120	0x3dd29296	0.10281865
121	0x3e592804	0.21206671
122	0x3e9b37b6	0.30315942
123	0x3e65e8b9	0.22452058
124	0xbe33df91	-0.17565753
125	0x3e108337	0.14112554
126	0xbcd695cf	-0.026194481
127	0xbd7f489e	-0.062325113
128	0x3de66836	0.112503454
129	0x3e308cbb	0.17241184
130	0xbdfc4034	-0.12316933
131	0x3e448358	0.19190729
132	0x3ed83e16	0.42234868
133	0x3decefd5	0.11569182
134	0x3e922a6b	0.28547987
135	0x3d764975	0.060128648
136	0xbe09fa19	-0.13474311
137	0xbe742a48	-0.23844254
138	0x3e3bd2a6	0.18342075
139	0x3e1a8e14	0.15093261
140	0xbedad468	-0.42740178
141	0x3caa75e7	0.020808173
142	0x3d99b895	0.07505909
143	0x3e8e9a0a	0.27851897
144	0x3dc73805	0.09727482
145	0x3e81317c	0.25233066
146	0x3ea1ac75	0.31576887
147	0x3da6ae40	0.08138704
148	0xbef4ed0c	-0.47837102
149	0x3d20fa70	0.039301336
150	0x3ea5ac13	0.32357845
151	0x3eaf23e7	0.3420708
152	0x3f123fe8	0.57128763
153	0x3dc67cc8	0.09691769
154	0xbea73e45	-0.32664695
155	0x3e032d07	0.12810145
156	0xbdd07f5c	-0.10180542
157	0xbee646de	-0.44975942
158	0xbea33db2	-0.31883007
159	0xbdd9158c	-0.10599813
160	0xbe5cc9fb	-0.21561424
161	0xbc833e78	-0.016020998
162	0x3eae6518	0.34061503
163	0x3d5f9eaf	0.05459469
164	0x3dd5b3b1	0.10434664
165	0x3e22571c	0.15853542
166	0x3e9d20ec	0.3068918
167	0x3c8e2351	0.017350825
168	0x3d72ce2b	0.05927865
169	0x3e847cfd	0.25876608
170	0x3e715eb6	0.23571286
171	0x3ec67cac	0.38766992
172	0x3ef0bee9	0.47020653
173	0x3eac0f07	0.33605215
174	0x3d479de4	0.04873456
175	0xbe0b933a	-0.13630381
176	0x3d1eabf0	0.03873819
177	0xbe24d252	-0.16095856
178	0x3e45748c	0.1928274
179	0x3e018055	0.12646611
180	0xbeeabf3e	-0.4584903
181	0x3eafefeb	0.3436273
182	0x3e52037f	0.20509146
183	0x3e06f316	0.13178667
184	0xbd95abd5	-0.07308165
185	0x3e170f91	0.14752032
186	0x3e98d20d	0.29847756
187	0xba12caa8	-0.0005599656
188	0xbe1328d5	-0.14371045
189	0xbcf6c8a3	-0.030124968
190	0x3ec23405	0.37930313
191	0x3ea75ac6	0.32686442
192	0x3e912bb5	0.28353658
193	0x3e8a8dc1	0.27061275
194	0xbf0ddc3d	-0.5541418
195	0x3e8e715d	0.27820864
196	0xbebe535a	-0.37172967
197	0xbecff371	-0.4061542
198	0xbe11ccde	-0.14238307
199	0xbc7188a7	-0.014742053
200	0xbd71e07e	-0.059051983
201	0x3ebc4c17	0.36776802
202	0xbd8e1571	-0.069376834
203	0x3e2f0ac2	0.17093948
204	0xbe2725f8	-0.16323078
205	0x3d27c541	0.0409596
206	0x3e9214be	0.2853145
207	0x3e0d0407	0.13771068
208	0xbeb95973	-0.36201057
209	0x3ea991c4	0.33119023
210	0x3f14c8c2	0.5811883
211	0x3e72f793	0.23727255
212	0x3f6e0a8d	0.9298485
213	0x3e1ba5bc	0.15199941
214	0x3dadbca6	0.084832475
215	0x3eb7c4be	0.3589229
216	0xbf036b50	-0.5133562
217	0xbeaf308e	-0.34216732
218	0xbf156665	-0.58359367
219	0xbf3a46ac	-0.72764087
220	0xbd05a246	-0.03262546
221	0xbe8651e9	-0.26234367
222	0xbe8b0549	-0.2715247
223	0xbe80120b	-0.25013766
224	0x3ef3ed82	0.47642142
225	0xbe989ca9	-0.29807022
226	0xbf3adb9b	-0.7299134
227	0x3d3a725e	0.045519225
228	0x3dea5207	0.11441427
229	0xbe97ff7c	-0.29687107
230	0xbf05b4e9	-0.5222917
231	0xbe764ccb	-0.24052732
232	0xbf3a7967	-0.72841495
233	0xbe15492b	-0.14578693
234	0xbc84baf1	-0.016202422
235	0xbd404b17	-0.04694661
236	0x3ec905dc	0.39262283
237	0x3e4b757b	0.19869034
238	0x3ea7e08b	0.327885
239	0x3f032f3b	0.5124394
240	0xbe33ee2e	-0.17571327
241	0xbe4adaae	-0.19809982
242	0x3dd9ad85	0.10628799
243	0xbed68188	-0.418957
244	0x3e3ae471	0.18251206
245	0xbef02ffc	-0.4691161
246	0xbeac96bb	-0.33708748
247	0x3d3050d7	0.043045845
248	0x3e7cb430	0.24678111
249	0xbdcd19d2	-0.100146905
250	0xbeb80b1e	-0.35945982
251	0xbe8917fb	-0.26776108
252	0xbf37f3a9	-0.7185617
253	0xbf006610	-0.50155735
254	0x3e4391f4	0.19098645
255	0x3e7d0fd1	0.24713065

bias f4 [20]
0	0x3e63d5bd	0.22249503
1	0x3d0332d3	0.03203089
2	0x3efc655c	0.4929608
3	0x3f1c14d9	0.6096931
4	0x3ef18b32	0.4717651
5	0x3eb6ba5c	0.35689056
6	0xbf01591b	-0.5052659
7	0xbf2376f8	-0.63853407
8	0xbeb6f170	-0.35731077
9	0xbebbebb1	-0.36703256
10	0xbf057962	-0.5213834
11	0x3edbcd13	0.42929897
12	0x3e51ea91	0.20499636
13	0x3df95195	0.12173764
14	0xbe7bc83d	-0.24588104
15	0x3f1499d8	0.58047247
16	0xbec2f035	-0.38073888
17	0x3ed28ce3	0.41123113
18	0x3efddf49	0.49584416
19	0x3e0d9863	0.13827662

weight f4 [19, 20]
0	0x3f84a12e	1.0361688
1	0xbdb6f744	-0.08933881
2	0x3f818224	1.0117841
3	0x3fefc41a	1.873172
4	0x3f83a904	1.0285954
5	0x3f9f6b9d	1.2454716
6	0xbf5dd01e	-0.86645687
7	0xbfc7219a	-1.5557129
8	0xbf5ef20e	-0.87088096
9	0xbff106f4	-1.8830247
10	0xbfe4e9a5	-1.7883803
11	0x3fae6b5c	1.3626513
12	0x3fa41ad2	1.2820685
13	0x3f1f472d	0.6221798
14	0xbfdea7b4	-1.7394929
15	0x3fc45665	1.5338866
16	0x3ff16a8e	1.8860643
17	0x3fc7ae8b	1.5600141
18	0x3fd0793a	1.6286995
19	0x3e74f6a8	0.23922217
20	0xbe28e9f4	-0.16495496
21	0x3e870af3	0.2637554
22	0xbe3bd5dd	-0.18343301
23	0x3e92354b	0.28556284
24	0xbda0ad57	-0.07845562
25	0xbdddf95f	-0.108385794
26	0x3d75116e	0.059831075
27	0xbe273a7f	-0.16330908
28	0x3ea4583b	0.32098565
29	0xbe301d85	-0.17198761
30	0xbe29f8ff	-0.1659889
31	0xbd9ec4bf	-0.0775237
32	0x3d41abb5	0.047282893
33	0xbeae1a3c	-0.3400439
34	0xb8567d1c	-5.1138093e-05
35	0x3e083daf	0.1330478
36	0xbdd5fb19	-0.10448284
37	0x3e795416	0.24348482
38	0xbdfe85fb	-0.124278985
39	0xbee92aa9	-0.4554036
40	0x3c74501a	0.014911676
41	0xbbf34c40	-0.007424861
42	0x3ceab177	0.028649075
43	0x3c101eaa	0.008796373
44	0x3d16c824	0.036811963
45	0xbc8efe22	-0.017455164
46	0xbcd694de	-0.026194032
47	0xbcb9539b	-0.022622874
48	0xbcfd364a	-0.030909676
49	0xbc879d7e	-0.01655459
50	0x3cc5e9f9	0.024159418
51	0xbc88d9b1	-0.016705366
52	0xbbe5892e	-0.0070048785
53	0x3c92e02d	0.017929161
54	0x3cc70c1b	0.024297765
55	0x3d496a7e	0.049173824
56	0xbd1e586a	-0.038658537
57	0xbc9ef873	-0.01940558
58	0xbc43b921	-0.011945994
59	0x3ccf93d4	0.025339045
60	0x3c745206	0.014912134
61	0xbc1fe2eb	-0.009758691
62	0x3cf0db05	0.029401312
63	0x3c101ec8	0.008796401
64	0x3d167626	0.03673377
65	0xbc8e824f	-0.01739612
66	0xbcf0e843	-0.029407626
67	0xbcad8a9a	-0.021184254
68	0xbcdd0856	-0.026981514
69	0xbc87ae1c	-0.016562514
70	0x3cc5ab65	0.024129579
71	0xbc88e1d4	-0.016709246
72	0xbbe7832c	-0.0070651975
73	0x3c935890	0.017986566
74	0x3cc6fa23	0.024289196
75	0x3d18d24d	0.037309933
76	0xbd1e3848	-0.038627893
77	0xbc9ef872	-0.019405577
78	0xbc43b8d1	-0.011945919
79	0x3d015616	0.03157624
80	0xb2fc3569	-2.936095e-08
81	0x32fb2ce2	2.9240656e-08
82	0xb29ed637	-1.8491034e-08
83	0xb2c49053	-2.2883034e-08
84	0x324b52e0	1.1834999e-08
85	0xb2b97773	-2.1591154e-08
86	0x32b8c13d	2.1508294e-08
87	0xb29ff0bf	-1.8619515e-08
88	0xb27a4c83	-1.4569312e-08
89	0x32c25344	2.2622437e-08
90	0x32086a2d	7.9403835e-09
91	0xb2d101ed	-2.4331678e-08
92	0xb29b2ea1	-1.806558e-08
93	0x32943f9b	1.7258392e-08
94	0xb2608428	-1.3068565e-08
95	0x31b94c45	5.3928795e-09
96	0xb152d758	-3.068143e-09
97	0xb285a585	-1.5558507e-08
98	0xb2e6bdc8	-2.6861827e-08
99	0xb231b8ba	-1.0344758e-08
100	0xb271fb1b	-1.4085141e-08
101	0xad911845	-1.649537e-11
102	0xb26af978	-1.3677315e-08
103	0x32d748aa	2.5062338e-08
104	0x32aa9f67	1.9863093e-08
105	0x31adc1fa	5.0570153e-09
106	0xb2365376	-1.0612771e-08
107	0xb2bee509	-2.2223064e-08
108	0xb2c191ea	-2.2534511e-08
109	0xb237246b	-1.0660282e-08
110	0x3228b1b5	9.819293e-09
111	0x32bd14be	2.2011928e-08
112	0x32e957ad	2.716464e-08
113	0xb1edf2c7	-6.9252084e-09
114	0x32b576c3	2.112518e-08
115	0x311d9334	2.2930182e-09
116	0xb20d6478	-8.230124e-09
117	0xb15932d1	-3.1606542e-09
118	0x32e89494	2.707592e-08
119	0x32e05007	2.6113424e-08
120	0xb2bfde7f	-2.2336506e-08
121	0xb29e3452	-1.8417413e-08
122	0xb292fe5f	-1.7112312e-08
123	0xb170e612	-3.5055376e-09
124	0xb2c02860	-2.2370102e-08
125	0xb302e2f6	-3.0474403e-08
126	0x31e7c584	6.7454398e-09
127	0x31373b25	2.6663625e-09
128	0xb11898c4	-2.2205748e-09
129	0x32bbcd61	2.186306e-08
130	0x3272ad03	1.4125592e-08
131	0xb2cb5de8	-2.3675014e-08
132	0x3179104b	3.624353e-09
133	0xb2cb183c	-2.364333e-08
134	0xb2d77a5c	-2.5084937e-08
135	0x32aaa903	1.9867462e-08
136	0xb2942422	-1.7245899e-08
137	0xb2a8802b	-1.9616058e-08
138	0xb2dad95d	-2.5477386e-08
139	0x32ccbf8d	2.3835833e-08
140	0xb2c72b8c	-2.3186452e-08
141	0x3123a23d	2.3811844e-09
142	0xb2caf71a	-2.3628264e-08
143	0xb2748578	-1.42330165e-08
144	0xafe09d7e	-4.0857268e-10
145	0x328fbdba	1.6733669e-08
146	0xb29a90b2	-1.799376e-08
147	0xb25e5a8a	-1.2942687e-08
148	0xb2e33e9c	-2.645475e-08
149	0x329817ac	1.7705894e-08
150	0x312dce28	2.5292e-09
151	0x32990718	1.781477e-08
152	0xb18958ba	-3.997312e-09
153	0xb2e686c0	-2.6836801e-08
154	0xb2d2cb7e	-2.4539755e-08
155	0x32a6f870	1.943792e-08
156	0x32bf25c2	2.2252497e-08
157	0xb2dd9fc3	-2.5800437e-08
158	0xb2e588a3	-2.6721244e-08
159	0xb20f6b78	-8.348131e-09
160	0xb2df50bf	-2.5997336e-08
161	0x32d3ff29	2.4679666e-08
162	0xb28d4138	-1.6444218e-08
163	0x31d47e23	6.184352e-09
164	0x32d3db05	2.4663231e-08
165	0x32cfaab0	2.4175591e-08
166	0xb2db4ac5	-2.5528957e-08
167	0xb281177d	-1.5028258e-08
168	0x32d44c55	2.471476e-08
169	0xb2b656c3	-2.1227043e-08
170	0x32f49532	2.8473185e-08
171	0xb25d95e0	-1.2897971e-08
172	0xb1dd964b	-6.449033e-09
173	0x32c8d03a	2.3377755e-08
174	0xb2e1432b	-2.6223992e-08
175	0x2e16aa94	3.4257555e-11
176	0x32c24e5d	2.2620208e-08
177	0x32bd0973	2.2006793e-08
178	0x32cf6cc0	2.4147425e-08
179	0xb2dc100f	-2.5618673e-08
180	0xb2980a6c	-1.7699868e-08
181	0xb2980f74	-1.7702156e-08
182	0x32c5ba2c	2.301848e-08
183	0x2fad9d49	3.1580275e-10
184	0x323456c4	1.0497107e-08
185	0xb298356f	-1.7719428e-08
186	0x305570f9	7.764949e-10
187	0x32e00216	2.607798e-08
188	0x3230b770	1.0286257e-08
189	0xb28c5868	-1.6338348e-08
190	0xb2a216dc	-1.8869677e-08
191	0x32c819dc	2.3294824e-08
192	0xb290480d	-1.6796571e-08
193	0x3255def9	1.244893e-08
194	0xb246b484	-1.1566161e-08
195	0x323014e4	1.0249298e-08
196	0xb23ec46d	-1.1104118e-08
197	0xb2b7251c	-2.132088e-08
198	0x32dcf019	2.5720555e-08
199	0x32d16783	2.4377874e-08
200	0xb2b28247	-2.078117e-08
201	0x32d7ad09	2.5107981e-08
202	0x312f6e3d	2.5528515e-09
203	0xb2c68007	-2.3108454e-08
204	0x32e24db4	2.6345198e-08
205	0xb284bf22	-1.545374e-08
206	0xb280f075	-1.5010508e-08
207	0xb29b0bcb	-1.8049738e-08
208	0x32caecdf	2.3623612e-08
209	0x314bbe17	2.9648441e-09
210	0xb2c0155f	-2.236146e-08
211	0x329b2895	1.806283e-08
212	0x32bb4480	2.1800815e-08
213	0xb289dc6b	-1.6049134e-08
214	0x328cfa7f	1.6412057e-08
215	0xb191ba36	-4.241225e-09
216	0x32a32fec	1.899749e-08
217	0x32ac1e98	2.0037348e-08
218	0x32b851b6	2.1457577e-08
219	0x32ca143e	2.35251e-08
220	0x31ad5c0c	5.045427e-09
221	0x32a155a1	1.8781806e-08
222	0x316f21c5	3.4798273e-09
223	0x32d208ba	2.4451186e-08
224	0xb2df7c0b	-2.6017025e-08
225	0x323a807b	1.0855838e-08
226	0x31abdae2	5.001639e-09
227	0x32b02b9e	2.0508931e-08
228	0x3095651f	1.0869917e-09
229	0xb21c2c7b	-9.090509e-09
230	0xb2442f0e	-1.14194005e-08
231	0x32dd25f1	2.574504e-08
232	0xb100c9ff	-1.8741273e-09
233	0xb2ab8c25	-1.997075e-08
234	0x31f80b13	7.219009e-09
235	0xb28b1ef9	-1.6195814e-08
236	0x322856fa	9.798663e-09
237	0xb29d86c9	-1.8338499e-08
238	0xb2df19a7	-2.5972282e-08
239	0xb2e9096f	-2.712906e-08
240	0xb2e5c74b	-2.6749737e-08
241	0x3168b640	3.386404e-09
242	0x330249e7	3.0335197e-08
243	0x3218ba52	8.889929e-09
244	0x32e9d0e6	2.7219766e-08
245	0xb2ba2c1d	-2.167331e-08
246	0xb2eda9cb	-2.7667644e-08
247	0xb2b5b98d	-2.1155552e-08
248	0xb2c1f226	-2.2578273e-08
249	0x326d8ac0	1.3826764e-08
250	0xb2988116	-1.775383e-08
251	0x32986703	1.7741973e-08
252	0x329c27dd	1.8178918e-08
253	0xb1e203d8	-6.5779027e-09
254	0xb0b3f7ea	-1.3094426e-09
255	0x33079e18	3.1575922e-08

bias f4 [19]
0	0x40191a42	2.3922276
1	0x3dabb3ee	0.08383928
2	0x3d3bcd44	0.045850053
3	0x3d3c0700	0.045905113
4	0x32ba7e97	2.1710816e-08
5	0x327346ac	1.41605305e-08
6	0xb20076ac	-7.4775635e-09
7	0xb2b1db99	-2.0705373e-08
8	0x329fb0fb	1.8590518e-08
9	0x32c8bd9e	2.3369292e-08
10	0xb2821a76	-1.5146025e-08
11	0x321bc42c	9.066792e-09
12	0xb184402e	-3.849002e-09
13	0x32d86923	2.519352e-08
14	0xb2b2b1b4	-2.0802737e-08
15	0xb14731c8	-2.8986609e-09
16	0x3281bba0	1.5102898e-08
17	0xb194d614	-4.3317048e-09
18	0x32c44aea	2.285147e-08
