src/gantry_crane_controller/pinn_models/Model 8-20-20-20-19.pt (torch, 10924 bytes, 8 tensors)

weight f4 [20, 8]
00000000: 74a8 7dbf 9689 14bd 03cd 5fbf e433 89be
00000010: 3811 88bd 2677 303d ce1f 3dbe 0487 40be
00000020: 4e24 88bf 0ad8 83bd 9803 f6be 4cae 153e
00000030: 6ddf 79be cfbb c43c 550a df3c 8584 963d
00000040: 7ebc 53bf a44b 1abc 33e2 d33e b558 8fbd
00000050: f255 c63d 807a 833d 8190 1e3d 13c0 37bd
00000060: cca8 a8bd 163c 1a3d 3ba9 7cbf 4dc2 f83e
00000070: b2c6 d13d 7702 a13c c8c4 123e 8310 413d
00000080: 8d8e 113f 1eb8 ea3b 1aae 61be 59b2 c03d
00000090: 4d3a 31be b098 e33d ad11 813d 5d33 133c
000000a0: fca6 d4be fd36 a83c f274 143f 2452 513e
000000b0: 92ee cdbd 2186 213d fba4 5a3b 25a0 1fbd
000000c0: aaf6 c83d 86de aabc 34b2 acbd 97fe 443e
000000d0: b4ad 51be e8e7 4bbe 3b52 263e ec91 d9be
000000e0: df28 a13e ce0a dd39 ca36 c33a 855b 503f
000000f0: 71ad 8bbd cebd 753c 0eb7 c6bd fbc5 303c
00000100: cd41 ebbe 17e0 8f3d ddb9 8c3c 7040 48bf
00000110: 2117 c93e 63b6 813e 713c cfbb 19a4 3abc
00000120: 2b54 aa3e da36 6a3d dc4b 77be b03f ca3e
00000130: 3926 9bbd 4d69 b0be a2a0 8e3e 7288 ff3d
00000140: e7a2 553f 5664 8abb 3dc9 023f 4a80 073e
00000150: 5795 91bd fb3f 2e3d 2813 bbbc 384a 57bd
00000160: be3d 71be 3985 71bc 759d a8bf 96ab 7c3e
00000170: 069f 503b 8fe6 d1bc f4e8 c23c b54d 9aba
00000180: da20 48bd de8f 73bc 8f2a 04c0 0248 e8bd
00000190: 25b0 b3bc 9132 c63b 7ecc e03c 4774 5ebd
000001a0: 4dcc 87be 4de5 b2bc bea8 743f a758 103f
000001b0: 9c5d 33be bc4f 2f3e 1625 193e 211d 513e
000001c0: a699 4dbf 1f1e 403c d78c 643e 4b5e 4e3e
000001d0: 9518 a5bd 0cad 34bd e900 e9bb 1890 c1bc
000001e0: 373a 853f 98a1 b83d c630 2dbf 7d13 cbbd
000001f0: 4bde 873e 152b c53c 803c bdbd f33a 27be
00000200: 5126 353f 5a01 ebbc 9b64 a83e a12b 5d3e
00000210: a7b5 10be 29ed 16bd 97a1 223d d43d e1bd
00000220: c1d1 0dbf 0388 313c e8b7 923e 9e61 383d
00000230: 09c5 92bd f8ee 13be e95a acbc 0b17 963d
00000240: 4c82 473f fa88 c2bc 698f 013f 110f d7bd
00000250: c953 c03d 960b ebbd de2a 663c 5b69 94bc
00000260: 7b87 5d3e 8eb6 2b3d 23ff 833e 8b68 1b3e
00000270: 3961 6cbe 6258 1cbc 9c94 13bd ae7b 863d
-0.99085164 -0.036264025 -0.874222 -0.26797402 -0.06643909 0.04308238 -0.18469164 -0.18801504
-1.0636079 -0.064376906 -0.48049617 0.1461727 -0.24401636 0.024015335 0.027226606 0.07349495
-0.8270949 -0.009417448 0.41383514 -0.069993414 0.096843615 0.064198494 0.03871203 -0.04486091
-0.082353204 0.03765496 -0.98695725 0.4858574 0.10242976 0.019654496 0.14332879 0.047134887
0.5685814 0.0071630618 -0.2203907 0.09409017 -0.17307396 0.11113107 0.063021995 0.008984414
-0.4153365 0.020534033 0.57990944 0.2044149 -0.10055269 0.039434556 0.0033362496 -0.038971085
0.098126724 -0.02085806 -0.08432427 0.19237743 -0.20476419 -0.19912684 0.16242306 -0.42494142
0.31476495 0.00042160455 0.0014893648 0.8138965 -0.06820191 0.014998866 -0.09702884 0.01078939
-0.4594864 0.070251636 0.01717847 -0.78223324 0.39275458 0.25334463 -0.006324344 -0.011391663
0.3326734 0.057181217 -0.24150032 0.39501715 -0.0757565 -0.34455338 0.27856928 0.12477197
0.83451694 -0.0042233868 0.51088315 0.13232532 -0.071085624 0.042541485 -0.022836283 -0.052561015
-0.23558709 -0.014741235 -1.3173052 0.2467483 0.0031833067 -0.025622634 0.023792721 -0.0011772426
-0.048859455 -0.014865844 -2.0650976 -0.113418594 -0.021934578 0.0060485085 0.02744126 -0.05431011
-0.26523057 -0.021837855 0.9556998 0.5638527 -0.17516178 0.1712026 0.14955553 0.20421268
-0.80312574 0.011725931 0.22319351 0.20153157 -0.08061329 -0.044110343 -0.007110704 -0.02362828
1.0408391 0.090151966 -0.6765255 -0.099158265 0.26536784 0.024068395 -0.09240055 -0.16331081
0.7076159 -0.028687168 0.32889256 0.21598674 -0.14131795 -0.036847267 0.039704885 -0.10998121
-0.55398184 0.01083565 0.28655934 0.04501497 -0.07166488 -0.14446628 -0.021039443 0.07328614
0.7793319 -0.023746956 0.5060945 -0.105009206 0.09390981 -0.11476819 0.014048306 -0.018116644
0.21633713 0.041922145 0.2578059 0.15176599 -0.23083963 -0.0095425565 -0.036030397 0.06566559

bias f4 [20]
00000000: 2c81 f6bf 386a 64bb cfc1 24bf 682c 073d
00000010: fa79 9e3e 2895 efbe d5b1 0140 dec9 99bf
00000020: 919f 75bd d95a 1bbf 3253 e7bd ab75 e93d
00000030: 5f8a e83e 3bb4 ee3d 5f3c 4a3e e8d4 1f3f
00000040: ea30 bdbe bdbb ccbe 2a04 d2be a73c f33e
-1.925817 -0.003485335 -0.6435823 0.033001333 0.30952436 -0.46793485 2.026479 -1.201473
-0.059966628 -0.606855 -0.11295165 0.113993965 0.4541807 0.1165547 0.19749592 0.62434244
-0.3695138 -0.39986983 -0.41018802 0.47507212

weight f4 [20, 20]
00000000: c884 84be 4702 d9bf 3a31 153e 8336 64bf
00000010: 70b4 363f 8778 823f 139e 2e3e 2e2f 43bf
00000020: b1d2 af3d eab5 773e 190b f0be c814 dbbe
00000030: 6890 e23e f1de 1dbf c038 b4be b755 d93e
00000040: 95b0 fb3e 43e3 7dbf 43ea 713f 454a f3be
00000050: e13c 2e3f f4c1 8bbe 8df8 89be eaa1 c2be
00000060: 7ed9 533e 663d 9bbb 0198 22be 2f08 203c
00000070: c3ff e23e ad1e 95be d1ff 80bf 1978 15bf
00000080: d4f1 dd3f cd97 cfbe 0ef5 0a3d f790 8a3e
00000090: 0b29 093e a09a 98be b6ac 83bf 5ff8 673e
000000a0: cda0 8d3e f54a 1f3e d30b e13e 23f2 23be
000000b0: 0ef8 cd3d ac1a 92bf db1b 453f fa46 6cbe
000000c0: 5e03 93be 5563 7b3e 025f 3b3e 1b9d d53e
000000d0: bcdd 0ebf 6253 90bc 83b2 92be 75c5 0bbe
000000e0: 9ecf 123d 0f25 103f 80a0 c13e 5c0e 353f
000000f0: f83a 21bf 3699 b7bf 8896 9c3e 9223 00bf
00000100: 3911 2f3e 6123 493f 22c1 4b3d 776b 03be
00000110: 22d5 c53e a19b 7d3e 96dc ff3e 882c 99bf
00000120: ff41 29bf 42db 7bbe 42a7 c6be 14f2 90ba
00000130: 9d08 66bf ab15 f03f a4b0 c33e e48d f23e
00000140: 7f01 b6be 7a93 c43e a75f 323e c8b6 dc3b
00000150: 9345 0fbe e6f6 2a3f 2308 183e 48e9 abbd
00000160: 6c3a 3dbd 9198 49bd f9c6 d7be cf81 7ebf
00000170: d908 9f3e 6e1b c1bd 9fdd 8fbf 605a f1bc
00000180: 3ddd 1f3d da07 a7bd acf9 023f 59dc 1abe
00000190: cf5b 14bf 9362 9ebe 1cc9 1d3f 9a83 04bf
000001a0: fcde 623e 1fa8 92bd 0ab5 60bd a09c 183c
000001b0: a7e8 febd 2c5a 8d3e 421c 9cbd e333 97bf
000001c0: 8844 973e 7a9f 0dbf a98f 203c ee1b a23e
000001d0: 5635 71be 6dc1 90bb fa1b ca3d 50b6 d9be
000001e0: 7384 05bf 29b2 2abe 8042 8fbe 1242 cf3b
000001f0: 9dc0 063f 9d67 2a3e d461 843f ee91 e73c
00000200: 45a1 02bf 685f 06bf f937 21bd 9bde 083c
00000210: 06a9 00bd eb12 bcbd a46d f73e b4e9 7bbe
00000220: e09f 3d3e c035 0cbe 6fb0 90bf 0cb5 8bbf
00000230: c1b0 8c3e ac42 43be 9b86 da3e aa3f 113f
00000240: b427 6abf 15b4 163f 8b90 84bf 3f4d 1c3e
00000250: 5f97 bb3f 858b 0cbe 993c 043f afe8 e43c
00000260: 225a 7b3f 3468 5ebf f5f1 10be f749 b8be
00000270: dfa6 21bf e7ac 83bf 8dc1 4bbe a7aa 883f
00000280: 2367 e7be 1999 a4be 29f8 1fbe 9b67 c73e
00000290: 79dc a9be 7978 6abe 58eb 733f 5184 03be
000002a0: f180 d6bc 92f0 083e c1ce 39bf 0284 01bf
000002b0: a5f8 013f 8673 cc3a 32a5 443f f28c 293e
000002c0: 25a9 51bd a0e3 823f e11f 2e3f d0e2 bfbe
000002d0: 2eaf 0e3f dc45 0ebf b8d7 3e3f 8deb 2e3f
000002e0: a97a 823e ce3b cabe 08f7 b13e c0d3 31bf
000002f0: 63dd 08bf e54f f8be ed25 683f e21d 1fbe
00000300: 7580 80bf f0f8 9fbe d24d 613f 7212 5fbf
00000310: 112c 49bf fd4e b3be e74c a33f 9983 7f3f
00000320: 3146 9e3f 7d6a 43be 8289 65bf d759 023e
00000330: fa59 99bd 4741 373f 6c21 b0be 5130 4e3e
00000340: 8c63 71be db75 8abe fe8b 983e abf8 8f3f
00000350: 2166 0cbe bba3 dc3d cb23 3cbf 4379 88be
00000360: 7dce c03e faf0 1ebf 27bf 07bf f370 8cbe
00000370: 8d50 7dbd 0805 053e 9f4d 37bf 4ec0 c7be
00000380: ae98 133e 591d 8abe f4bd 1e3f 24ce 033f
00000390: 3df0 89be ca25 663e a3e1 04bf 7a95 a2be
000003a0: c3a7 d43e 4ee7 16be 5058 70bf 5b36 743e
000003b0: 6063 4a3e e9af 4dbe 8736 35bf 7007 09be
000003c0: e202 033d 30a7 8abe 64ad b6be 01ff 193e
000003d0: 52d5 29bf 7a9a c03e 456d d63e 3fec f3be
000003e0: f6e2 b53d 48b1 ebbd 7510 99be 9858 cebe
000003f0: 53eb 053f b387 833d 8afa a7bd 482b e6bd
-0.25882554 -1.695382 0.1456956 -0.8914568 0.71369076 1.0193032 0.17052488 -0.76243865
0.08585108 0.24190488 -0.46883467 -0.42789292 0.44250798 -0.61668307 -0.35199547 0.42448208
0.4915816 -0.991749 0.9449808 -0.475176 0.68061644 -0.27296412 -0.26947442 -0.38014156
0.20688435 -0.004737544 -0.15878297 0.009767576 0.44335756 -0.29124966 -1.0078069 -0.5838638
1.7339425 -0.40545502 0.03392511 0.27063724 0.13394563 -0.2980547 -1.0287082 0.2265334
0.27661744 0.15555938 0.43954334 -0.16010337 0.10057078 -1.141439 0.7699563 -0.2307395
-0.28713506 0.24549611 0.18297961 0.41721424 -0.5580709 -0.017617885 -0.2865182 -0.13649543
0.03584253 0.56306547 0.37817764 0.70725036 -0.62980604 -1.4343631 0.30583596 -0.50054276
0.17096414 0.7856961 0.049744733 -0.12833963 0.3863917 0.24766399 0.4997298 -1.1966715
-0.6611633 -0.24595359 -0.38799483 -0.0011058473 -0.8985689 1.8756613 0.38220704 0.4737388
-0.35548016 0.38393766 0.17419301 0.0067356564 -0.13991384 0.6678299 0.14846854 -0.08394104
-0.046198294 -0.049217764 -0.42143992 -0.9941682 0.31061438 -0.0942906 -1.1239508 -0.02946204
0.03902935 -0.081557944 0.5116222 -0.15123118 -0.5795259 -0.3093458 0.61634994 -0.5176331
0.22155374 -0.07160973 -0.054860152 0.009314686 -0.12446719 0.27607858 -0.07622577 -1.181271
0.29544473 -0.55321467 0.009799876 0.31661934 -0.23555502 -0.0044175894 0.09868617 -0.42521906
-0.52155226 -0.16669525 -0.27980423 0.006325015 0.52637655 0.16641088 1.0342355 0.028267827
-0.5102733 -0.5248933 -0.03936002 0.0083538545 -0.031411193 -0.09183296 0.48325837 -0.2460087
0.18518019 -0.13692379 -1.1303843 -1.0914626 0.27478603 -0.19068402 0.4268082 0.5673777
-0.9146683 0.58868533 -1.0356611 0.15263842 1.465557 -0.13725097 0.51654965 0.027942983
0.98184407 -0.8687775 -0.141548 -0.3599393 -0.6314525 -1.0287141 -0.19898053 1.0677079
-0.45195875 -0.32148054 -0.1562201 0.38946232 -0.3317602 -0.22897519 0.9528098 -0.12843443
-0.02618453 0.1337302 -0.72581106 -0.5059205 0.50770026 0.0015598394 0.7681457 0.16557673
-0.0511867 1.0225716 0.68017393 -0.37477732 0.55736053 -0.55575347 0.7454791 0.6832817
0.25484207 -0.39498752 0.34758782 -0.6946373 -0.5346281 -0.48498455 0.9068287 -0.15538743
-1.0039202 -0.31244612 0.8800937 -0.8713752 -0.78582865 -0.350212 1.2757844 0.9981018
1.2365171 -0.19083591 -0.89662945 0.12729584 -0.07487865 0.7158398 -0.344005 0.20135619
-0.2357313 -0.27043042 0.29794306 1.1247762 -0.13710834 0.107734166 -0.73492116 -0.26655015
0.37657538 -0.6208645 -0.5302605 -0.27429923 -0.061844397 0.129902 -0.71602815 -0.39013904
0.14413711 -0.26975515 0.62008595 0.5148642 -0.269411 0.22475353 -0.51906794 -0.31754667
0.41534242 -0.14736673 -0.93884754 0.2384886 0.19764471 -0.20086636 -0.7078633 -0.13381743
0.03198517 -0.2708068 -0.35679162 0.15038683 -0.66341126 0.37617856 0.4188024 -0.4764118
0.0888118 -0.11508423 -0.29895368 -0.40301967 0.523122 0.06422367 -0.082020834 -0.11238724

bias f4 [20]
00000000: 98f5 323f 0429 4bbf ab54 8f3e 64eb 233f
00000010: fa6c 4abf b43b 383f e639 35bf 836d 4ebe
00000020: 25c0 adbe ac9c 2cbe 60a6 153e ef5e d0be
00000030: 8726 b83c 715d 82bf eb34 29bc dbdc ccbd
00000040: 55f4 cdbd 90dc 14be 6026 cebe a540 27be
0.69905996 -0.7935946 0.27994284 0.6403105 -0.79072535 0.719661 -0.7079147 -0.20158963
-0.33935657 -0.1685664 0.14614248 -0.4069743 0.022479309 -1.0184766 -0.010327558 -0.10003062
-0.10056368 -0.14537263 -0.40263653 -0.16333254

weight f4 [20, 20]
00000000: 1be0 f3be bb2d ef3e 7848 943f 9f7f 89bf
00000010: e9c4 a83f 1d13 4cbd 4285 3f3f c4e0 023f
00000020: edfa 833f 8fb7 12bf 73eb 6bbc ffb2 1440
00000030: 7386 893f d630 52bf 8873 8cbf 9181 f6bc
00000040: 958a 0d3f e2e0 273f 3f34 a53e 047d b6bf
00000050: 6ca5 073e fa80 2d3f 1d6b abbe e1fc c5be
00000060: 70c5 b13f 5cc4 863e 219c 5d3e 6302 b73f
00000070: 3424 e03f 1a04 07c0 de60 833d 917e 503e
00000080: dae8 3bbd dbd8 a5bf d672 92bf e2d2 193f
00000090: 3a44 933f 54bb 283e 6ece 4c3e eb4d 72bf
000000a0: 3d67 8b3d 43ed 47be ba6b 5e3f fa03 eebe
000000b0: d588 93bf b326 0e3e 4a8d 59be 32cd 053f
000000c0: 6758 eabe 4016 edbe 11b7 80bf b099 b5be
000000d0: b309 73be 214c 043e 8e9c ea3d 5297 0fbf
000000e0: b958 973e 1881 aabd b8c1 3b3d 0759 cf3e
000000f0: d2e7 c2bd 4b3e f1bf 7790 983e cf51 1bbf
00000100: c94c 84bf 2102 e23d b916 cb3e 2cfb 31bf
00000110: e482 d2be 5c6a 03bf 2298 18bf 5c30 16be
00000120: 8b28 37c0 71b5 ac3e af47 6d3e c341 283f
00000130: 2da8 843f 275e 8a3f c0e7 bd3d b807 f7bd
00000140: ddfe 13be a108 443f 5034 2a3f ea8f 673e
00000150: e9de 8dbf d975 153f 6ef1 4dbf 0eb6 b2be
00000160: 6713 7e3e fe60 203f 994f 0fbf 805d 133e
00000170: a8c4 2dbe 2b38 b6be 5b73 523e 6a79 45bf
00000180: 2dee 09be bbbf 8ebd 7c9b 383f f444 0f3f
00000190: 640b 0ebe f7b4 bd3e 1f92 203e 7baa 89bf
000001a0: 5b67 d33d b358 66bf 879d b4bd 24a7 9e3d
000001b0: 7f18 af3e 436a e5be 11ab 463f 5ffd 893e
000001c0: a0b3 a3bf 1619 9e3f f92f f93d af6d 6e3e
000001d0: b5c1 ba3c 33e8 cc3e ef38 a1be 167f afbf
000001e0: 9b9e 653f edd2 b2be d092 033e 5963 b33f
000001f0: 2f1e 13c0 1391 313f 8dba e23e 3c70 cc3e
00000200: 4816 cf3e 1a27 ad3e 01d0 143f 8b1b 00bd
00000210: b572 9b3e 45a3 0dbe 29ac 893d 3291 04be
00000220: a0e2 783c 5aaa f73e f9e8 fe3e 31c3 e43f
00000230: 49d0 8fbb c817 ebbd 026f a93f fbcb 483e
00000240: 7527 cebf 221d 243f 6da7 2fbf 5be2 ab3d
00000250: 60a3 893c 4047 643f 03ff 023e 43f7 863f
00000260: e188 20bf 147e 2c3f 5524 f43e a197 a63f
00000270: cea3 113f c159 5f3f e8ce dd3f f22f 04bd
00000280: 325d 3abd 11ea 513f b4b9 73bf 2ff5 873e
00000290: a4f9 26bf 982a ad3d 2480 f3be cde8 cf3f
000002a0: 4704 043f 5c87 11bf ec9c 12bf c3e0 c43f
000002b0: 57c6 ee3f a940 b93e d37d bbbf 21f3 b33f
000002c0: c2ec 82bf 787c 3bbf 487b 7f3c b74b a7be
000002d0: d679 20bf e105 d3bc cd04 98be d464 6dbf
000002e0: 006e 0540 9f7c 8cbf ebe4 30bd 3e26 753e
000002f0: 2c96 663f ab82 e83d 4d72 a7be a86e 163f
00000300: 8ec1 abbf 67fb 4f3f 62c2 92bf f1d8 133c
00000310: 0c99 6a3f e792 0a3f f444 a8be b67d 37bf
00000320: 3e2f 623f 6489 b9be 7226 38bf d899 b13f
00000330: 6181 03bf e938 633f b1fb 093e 1327 e43e
00000340: af34 1abf 0d25 993f 7eb2 01bf 00bd fcbf
00000350: 74e9 3a3d 80d1 53bd 5b86 1440 fa57 8abe
00000360: 5675 c23f d2b1 4d3f 5877 0f3f aa7d 373f
00000370: b41e 26bf d284 d0bf 8bf2 2a3e 77a0 083f
00000380: a88c f7bf eefa 0e3f 2b9d b0bd df2a 443f
00000390: cc19 fc3e ba50 623f 0dcc 8a3e a41b e73d
000003a0: bca8 97bf 7139 7bbf f827 993f a31d e3bf
000003b0: c943 cd3e ca52 133e 0122 be3e 9169 103f
000003c0: 301a 1bbe a4ca 99bd 0f81 03bf 5521 8ebf
000003d0: ba12 d53f c087 4cbf 1fbb 033f 1b01 5d3e
000003e0: b4c7 b73f 7757 e9be 7052 823e d32b 3c40
000003f0: 120f 86be 5be5 1640 3d5a 29bf 8d6a 5ebf
-0.47631916 0.46714577 1.1584616 -1.0742072 1.3185092 -0.049822915 0.7481271 0.51124215
1.0310951 -0.5731134 -0.014399397 2.323425 1.0744156 -0.8210577 -1.0972757 -0.030091079
0.55289584 0.6557752 0.32266423 -1.4256902 0.13246697 0.6777493 -0.33480158 -0.38669494
1.3888378 0.26321685 0.2164159 1.4297603 1.7511048 -2.1096253 0.0641496 0.20360781
-0.04587636 -1.2956804 -1.1441295 0.60087407 1.1505196 0.1647771 0.20000622 -0.94650143
0.068068005 -0.19524102 0.8688313 -0.4648741 -1.1526133 0.1388195 -0.21245304 0.5226623
-0.4577057 -0.46306038 -1.0055867 -0.35468817 -0.23734169 0.12919666 0.11455642 -0.5609027
0.29559878 -0.08325404 0.04583904 0.4049761 -0.095168725 -1.8847135 0.29797718 -0.60671705
-1.0335933 0.11035562 0.39665774 -0.6952388 -0.41115487 -0.51334167 -0.59607136 -0.14666885
-2.8618495 0.3373218 0.23171876 0.65725344 1.0363823 1.0809983 0.092727184 -0.12062019
-0.14452691 0.76575667 0.6648607 0.22613493 -1.1083652 0.58382946 -0.8044652 -0.34904522
0.24812089 0.62648 -0.5598083 0.14391136 -0.1696955 -0.35589728 0.20551817 -0.7713839
-0.13469763 -0.069701634 0.7211225 0.5596459 -0.13871533 0.37052128 0.15680741 -1.0755152
0.10322448 -0.89979094 -0.088191085 0.07746723 0.34198377 -0.44807634 0.77604777 0.2695112
-1.2789192 1.2351406 0.12167353 0.23284028 0.022797445 0.40020904 -0.3148875 -1.3710659
0.8969514 -0.3492655 0.12848973 1.4014693 -2.2987173 0.6936199 0.44282952 0.39929378
0.40446687 0.33818895 0.5812989 -0.031276267 0.30360952 -0.13831814 0.0672229 -0.12946013
0.01519075 0.48372155 0.4978712 1.7872068 -0.004388843 -0.11479145 1.3237002 0.19609062
-1.6105791 0.64106953 -0.68614846 0.08392783 0.016801536 0.8917122 0.12792592 1.0544208
-0.6270886 0.6737988 0.4768397 1.3015023 0.5689057 0.8724633 1.7328768 -0.032272287
-0.045499034 0.8199778 -0.95205235 0.26554248 -0.6522467 0.0845539 -0.475587 1.624292
0.51569027 -0.56847167 -0.57270694 1.5381092 1.8654279 0.36182144 -1.4647774 1.4058572
-1.0228503 -0.732368 0.015593357 -0.32674953 -0.62685907 -0.02575964 -0.29691163 -0.92731977
2.0848389 -1.0975531 -0.043187063 0.2394037 0.90072894 0.11353048 -0.32704392 0.587626
-1.3418443 0.81242985 -1.1465571 0.009023891 0.9163978 0.54130405 -0.32865107 -0.71676195
0.88353336 -0.36237633 -0.7193366 1.3875074 -0.5136929 0.88758713 0.13474919 0.4456106
-0.6023664 1.1964432 -0.5066298 -1.9745178 0.045632794 -0.051713467 2.3207004 -0.27020246
1.5192058 0.8034946 0.5604148 0.71676123 -0.648906 -1.6290534 0.16694085 0.5336985
-1.93398 0.5585164 -0.086237274 0.76627916 0.4923843 0.8840443 0.27108803 0.11284569
-1.1848369 -0.98134524 1.1965322 -1.774342 0.40090778 0.1438705 0.37135318 0.5641108
-0.15146708 -0.07509354 -0.513688 -1.1103922 1.664634 -0.7989464 0.514574 0.21582453
1.435782 -0.45574543 0.2545352 2.9401748 -0.26183373 2.3577487 -0.6615332 -0.86881334

bias f4 [20]
00000000: 7f0e 5abf 4771 85be 7701 80be bc90 5d3e
00000010: a7dc 98bd 73ba bcbe 22f4 f63e 5b1c 513f
00000020: ee43 443c 7ad9 d8be b7a2 00be e6e8 6c3d
00000030: cb68 1ebf 475d 8d3f 4245 183f d8ed bfbd
00000040: b1d6 60be 007e 12bf b9a0 b23e 73b6 21bf
-0.8517837 -0.26062986 -0.25001118 0.21637243 -0.07463961 -0.36861 0.48233134 0.8168389
0.011979086 -0.4235342 -0.12562071 0.057839297 -0.6187865 1.1044091 0.5948068 -0.09371537
-0.21956898 -0.5722351 0.34888247 -0.6316902

weight f4 [19, 20]
00000000: 3a27 84bf 87bd e7bf de10 cf40 2e94 b83f
00000010: 1b37 4240 c022 cdbf 51a6 3440 4ed0 0940
00000020: ddac 7abf f8ea 12c0 b308 413f 7fbe 1640
00000030: 0c3f 25c0 28b0 b43f 8cc4 fb3f 2bf2 aebf
00000040: 0cd7 f43f 7e39 32c0 f457 1740 dadd e2bf
00000050: 93d7 0e40 559d a8bf dd1d c0bf 51ee 5bbf
00000060: c6d1 a8c0 7403 a1bf be51 48c0 125c 4340
00000070: 5d07 ecbe 6ab9 3140 000a 83bd 4b7b 3640
00000080: 7f85 553e ac72 bcbf 875d 0840 dd6a 3ec0
00000090: 0da4 04c0 66cd b8bd c20a 2f40 2e2d e7bf
000000a0: d0c0 c0bc b95a be3d 9027 d6be 7bc2 8cbc
000000b0: 6ed3 cfbc b4bd 88be 8be2 ba3e 3c32 e23d
000000c0: 5543 8ebe dea4 85be 765e a0ba ef90 febd
000000d0: c017 b7be 9a81 423d 27d1 663d b19a 2ebe
000000e0: 1603 363f 6540 69be 7175 5dbd 9815 14bf
000000f0: cccf 633e 02b1 3e3b 937a 88be e710 81bd
00000100: 5886 a33e 46da 27be b396 a53e 902b aa3d
00000110: da6e 313d 4112 0cbf bfb7 bbbd dac2 74be
00000120: 6e17 7abe 917f abbd 8c82 103e 5261 40be
00000130: adcd 373f 20e4 b0bd aa49 3f3e a615 1dbf
00000140: 2008 05be f762 d8bd 9b7e e63d 4d72 dcbd
00000150: 4680 cabc 19ba 663d ad53 5c3e 4bf9 283c
00000160: 5ecc febd b469 0ebe a08a 22be ee73 aabd
00000170: f6c0 07be 5436 f73d bab3 39bd 1841 07be
00000180: 0305 e9bd 2e39 94bc ea75 41bd 10df 073e
00000190: a814 b03d 2343 c5bb ebed 92bd e2b7 57be
000001a0: cd47 44be a153 a7bd 402b 00bd 17e0 573e
000001b0: 38a8 0f3e b157 9f3d 3a76 62be 0cda 003e
000001c0: c093 1dbe 0c21 5bbe 17f4 073d 07fc 13be
000001d0: f7a2 35be 889a 3b3e 6019 72bd 82c2 98bd
000001e0: 18b5 f4bd 3a25 f3bd c7ad 05be 2f2e 5a3c
000001f0: f2cf 243e 7d67 edbc 64d2 2e3e f370 2f3e
00000200: 5647 0c3d f345 263e 09bf 243d 50ae 463e
00000210: 561b a9bc 4b14 c83d 0c5b 01bc bfe3 0b3d
00000220: 7c5f 143e 44d3 10be af17 173e fb69 4e3e
00000230: c1db babc 0910 413c cb27 18be 091e a23c
00000240: 1b59 bd3d 5583 a4bc c0c7 be3c 39c7 923d
00000250: 16de 44be 5164 edbd 3e24 60bd 7644 1b3e
00000260: 63fb 513e b42e b5bd e860 8abb cd33 953d
00000270: e584 16be dff0 b33d 08b2 0dbe 4f4e 1c3e
00000280: f4d4 0f3e 7e35 243e ca7e c23d f596 eabd
00000290: 30f5 5b3e cd14 943d 4c07 753c 0bac ca3d
000002a0: d75e debd 67a6 af3d 4537 41be c967 843d
000002b0: 8545 3e3e 4bbb 613d 22f5 853d 921a 23be
000002c0: 9020 b83d 3caf 58be eb72 0d3e a4c0 3dbe
000002d0: 94ce 193e 96bc 28bc bb41 853d cfc2 373e
000002e0: 2eb0 2a3d b9a2 053d 7a49 dabd c594 cf3d
000002f0: 26c0 cebd 79e1 25be ebc5 42be 58a2 8d3c
00000300: 28e8 07be 7e5d fabd 914d 3c3e cf2d 3a3e
00000310: 3d64 94bd 4b90 26be 36c7 583e fcba c3bc
00000320: 701c 463e 63a1 43be c0af 34bc 0609 5f3e
00000330: 7484 e93d dfc4 103e e900 5fbe 83a4 143b
00000340: 464e 2bbe 60aa a8bd 8816 5b3e d4d7 f03c
00000350: 9319 c63c 4aad 0abe 2879 c0bd 665b 52be
00000360: b2fe 9cbd 554d ca3d b22a 5a3e 4748 393e
00000370: 7e9c 96bd 44de 243e dfa4 92bd eb9f e33d
00000380: d8b2 823d 02af d9bd b900 1b3e 5c0a 5f3d
00000390: d095 543d e675 073e d698 75bd 8bee 603e
000003a0: 7247 fdbd dc29 8c3d b6c0 1a3e 45fb d1bd
000003b0: 4063 a6bd 3685 bebd 9964 003e e5a7 72bd
000003c0: 2c92 573e 1bee 423d b8b3 433d a693 55be
000003d0: 30cb 553e 7be2 21be 4448 42be 39f1 853d
000003e0: 3255 a83d fa9a 5c3e 9247 ef3d d602 3a3e
000003f0: e274 f0bd a32c 01be 2b31 453e a142 523b
-1.0324471 -1.8104714 6.470809 1.4420221 3.0346134 -1.602623 2.8226511 2.153339
-0.9792002 -2.2955914 0.754039 2.355377 -2.581973 1.4116259 1.9669356 -1.3667654
1.9128127 -2.784759 2.3647432 -1.7723954 2.2319076 -1.3173014 -1.5009114 -0.85910517
-5.275607 -1.2579179 -3.1299891 3.0524945 -0.46099368 2.7769418 -0.06398392 2.8512752
0.20851706 -1.4722495 2.1307085 -2.9752724 -2.0725129 -0.09023552 2.7350316 -1.8060663
-0.02352944 0.09294648 -0.4182706 -0.01718258 -0.025369372 -0.26707232 0.36500964 0.11044738
-0.27785745 -0.26102346 -0.0012235183 -0.12429988 -0.35760307 0.04748688 0.056351807 -0.17051198
0.7109846 -0.22778471 -0.05406708 -0.5784545 0.22247237 0.0029097204 -0.26656017 -0.06302052
0.31938434 -0.16391858 0.32341537 0.0830909 0.043318607 -0.54715353 -0.09165906 -0.23902455
-0.24423 -0.08373941 0.141123 -0.18787125 0.7179821 -0.086372614 0.18680444 -0.6136116
-0.1299138 -0.10565751 0.11254617 -0.10763989 -0.024719369 0.05632982 0.21516295 0.010313342
-0.12441324 -0.1390751 -0.15873194 -0.08322893 -0.13257203 0.12070909 -0.045337416 -0.13208425
-0.11377909 -0.018093672 -0.047231592 0.13268685 0.0859769 -0.006019966 -0.071742855 -0.2106624
-0.19168015 -0.08170248 -0.031291246 0.21081577 0.14029014 0.07780398 -0.22115412 0.12583178
-0.15388393 -0.21399325 0.033191767 -0.1445161 -0.17737947 0.18320668 -0.05910623 -0.074589744
-0.119486034 -0.11872335 -0.13054572 0.013316675 0.1609495 -0.028980011 0.17072445 0.1713293
0.03424772 0.16237621 0.040221248 0.19402432 -0.020642918 0.097694956 -0.007895242 0.034152742
0.1448955 -0.14143091 0.14755128 0.20157616 -0.022809865 0.011783608 -0.1485893 0.019789713
0.09245511 -0.020082155 0.023288608 0.07166905 -0.19225344 -0.115913995 -0.054722063 0.15162835
0.20506053 -0.088467985 -0.004222978 0.07285271 -0.14699133 0.08786177 -0.13837445 0.15264247
0.14046079 0.1603603 0.09496839 -0.11454574 0.2148025 0.0723053 0.014955353 0.09896096
-0.10857933 0.085766606 -0.1886874 0.06465108 0.18581207 0.055110257 0.06540896 -0.15928105
0.08990586 -0.21160597 0.13813369 -0.18530518 0.1502021 -0.010298869 0.06506678 0.17945407
0.041671924 0.032625888 -0.10658546 0.101357974 -0.10095243 -0.16199292 -0.19020812 0.017289326
-0.13272154 -0.122248635 0.18388964 0.18181537 -0.072456814 -0.16265981 0.21169743 -0.023892872
0.19346786 -0.19104533 -0.01102823 0.21780786 0.114022166 0.141376 -0.21777691 0.0022681064
-0.16729078 -0.082356215 0.21395314 0.02939979 0.024182117 -0.13542667 -0.09398109 -0.20542678
-0.07665767 0.09878031 0.2130535 0.18093978 -0.07354067 0.16100413 -0.07160353 0.11114486
0.06381768 -0.10629083 0.15136994 0.05445324 0.051900685 0.13228568 -0.05996021 0.21965997
-0.12367143 0.068439215 0.15112576 -0.10253004 -0.08124399 -0.09302752 0.12538375 -0.059242148
0.21051854 0.047590356 0.047778815 -0.20857105 0.20878291 -0.15809052 -0.1897288 0.0654015
0.08219375 0.21543494 0.11683573 0.18165144 -0.117410436 -0.12614684 0.19257037 0.003208317

bias f4 [19]
00000000: db53 263e 4811 42bf 26ab b03e 8c77 f53e
00000010: f239 3abd 282a cbbc 655c 633e 211c 1a3e
00000020: 968a abbb d819 d13d 6eb2 f03c d216 41be
00000030: 5dec dbbd 6354 513e 5c62 9a3d 14a6 a53c
00000040: 5779 1b3c 5c9f 203d a6b5 0f3e
0.16242926 -0.7580762 0.34505576 0.4794277 -0.045465417 -0.024800375 0.22203214 0.15049793
-0.0052350266 0.102100074 0.029381957 -0.18856362 -0.10738442 0.20442347 0.07538292 0.020220794
0.009489379 0.039214477 0.14034137
