src/gantry_crane_controller/pinn_models/Model 8 input 100 param dHa ass FIX jit.pt (torch, 102841 bytes, 8 tensors)

weight f4 [100, 8]
00000000: 195d 203f b49e 6abd a94b b03e 4c5a 3abe
00000010: 031a d03d a5f4 14be 2ee4 f0be 4055 f7be
00000020: 9cf7 933e 84c7 9abc 41f2 983e ed6f d53e
00000030: dd8f e83d f592 a63c b153 693e 2f36 e03e
00000040: 2995 223f 8469 953e 6ec8 4b3f 69ca f4bb
00000050: b17e e0bd 6fcf 643d a560 86be 3276 033d
00000060: ad03 7bbd 9416 f6bd e171 a63f 5d0d 4fbd
00000070: e6ef f9bc 660f 5abb f1d7 01be 2c98 fc3d
00000080: af57 74be f95b 503d e948 5e3f 1a26 393f
00000090: a71c f8bd d584 0f3e 274b 623d f89c 203f
000000a0: 32a8 803e 8135 87bd 7563 8e3f 29f3 b63e
000000b0: 6f6c 323d c732 11bc 0a9b 2ebe ce27 503e
000000c0: 74fe 0a3e ed5d 333e 5e44 1cbf c208 5b3d
000000d0: 8d1f 813e 9e3f 083f 3478 99bc 87b5 8fbd
000000e0: 7dae 343f 9291 8dbe 8c89 eabc 700b 83be
000000f0: dcb5 fa3d 286b 6d3e df96 cc3e f718 8abe
00000100: 57b5 993c 5af8 013e 7d6f 63bf b8f0 573e
00000110: 9785 823d eff5 b8bd 49e6 a33d a9d6 db3e
00000120: 3b31 553e c838 0ebe 62a0 99bf cd45 43be
00000130: 1c6f 9c3c 31e8 5cbe d18e fabc 64d6 833d
00000140: 3aac 283e 3ba8 54bd edb5 87bd f613 16bf
00000150: ec36 b03d bf22 d6be c8c9 893e ab87 473e
00000160: cd03 d8be 7c05 0dbd 894c 763f e6df d93e
00000170: a6e7 aabd 8a91 e53d aa2a 8a3e cdc0 8c3d
00000180: 4400 0cbe b81f 003e 121f 943f 792e 48be
00000190: d15f e5bd b342 52be f810 a8be 73d7 d43e
000001a0: 83a4 b4bd 0043 f23c d778 34bf 725d 2f3f
000001b0: fdf5 a33c d3b5 78bd d9fe ccbd fff6 07be
000001c0: 6f12 5bbe 0259 783e a6d5 603f b040 963b
000001d0: 6630 69bd dce0 93bc bc7f 2b3e 9813 743c
000001e0: 00c4 25be 8626 3f3e cc0f 023f 1f1f 95be
000001f0: e067 61be ae58 89bd 1f46 bf3d 2ab7 5f3f
00000200: e0b4 03bf d310 ec3c b46d 14bf 24a3 f6bd
00000210: 1e86 adbe 8b8a 09be afc3 0bbe 20b0 33be
00000220: 79a3 15bf dfc6 96bd a2f9 debe ca27 aa3d
00000230: 73db 23be 5109 f43d 0f1b 2abe e60c 733c
00000240: 5349 463c 8639 663d 00b3 8ebf a78e 4b3d
00000250: 9cc6 16be ad9e 75bd b070 bcbb 867c e13d
00000260: f9ba ea3d 5fab cfbe a0cc d4be 7427 9ebd
00000270: a672 febd bbed 27be 51b1 8ebe bfcf 49bf
00000280: b478 293e 022c 97be dae4 5fbf d089 fe3b
00000290: 66d3 84bd 78ea 64bd 4ed3 5c3e 67ba 97be
000002a0: 0919 eabe 735b 98bc dddf 5c3f d586 043f
000002b0: e651 cebd 8258 b1bd d1b8 2b3d 169a ea3b
000002c0: b072 e3bd a4ea 7a3d cda5 293f 329c d6bd
000002d0: 16e1 803e 78ea bbbc db7f 0a3e fc99 b63e
000002e0: 3fdb 833f d85b 073d 3781 1d3f 38b7 da3e
000002f0: 02b0 97bd 4b1f d7bb 4597 133e f047 ccbd
00000300: 0243 6c3e 530d f93c 1c02 a23f 6c0f 86be
00000310: 89bb 27be 1945 c4bd 7772 833e 1892 e23d
00000320: 6736 173e b380 533e 9cf3 7abf 2590 70be
00000330: 30ba 9fbe 29e7 783e 2159 f6be 1c1c 22bc
00000340: e037 bebc 6cf3 a73c ae2f 83bf f086 e23e
00000350: d427 32bd 8ba4 c93c f2df 24be 28eb 693c
00000360: cd3c e03e 08f7 24be 17f5 94bc 9bc6 853d
00000370: 9be6 b43d a67d 38be 4991 1ebf ea07 59bf
00000380: e256 1abf cf41 213e a6a0 37bf 2101 6ebb
00000390: 19cb 9abc 2ce8 673d ced5 233e d863 e53e
000003a0: d145 cdbc 9cfd d43d c9d3 01bf 07d2 84bf
000003b0: 0e2e 0a3c a262 2b3d 391d e5bd 8377 ea3d
000003c0: 9fe1 243f 612d f13d 8037 efbe 272b d8bd
000003d0: e644 73bd 7215 e13d 400d c13d 5876 cbbd
000003e0: 936e 6e3e 2f5f 83bd 31a6 92bf bf00 e7bd
000003f0: 91ce d0bd b195 f7bd bb9e d9be 5a73 593e
0.62642056 -0.057280257 0.34432724 -0.18198508 0.10161211 -0.1454645 -0.47049087 -0.48307228
0.28899848 -0.018893965 0.29872325 0.41686955 0.11355565 0.020333746 0.22785832 0.4379134
0.6350885 0.29182065 0.79602706 -0.0074704182 -0.109616645 0.055861887 -0.2624561 0.03209514
-0.061282802 -0.12016025 1.3003503 -0.050549854 -0.0305099 -0.0033273338 -0.12680031 0.12333712
-0.23861574 0.050868962 0.8683 0.72323763 -0.1211484 0.14015515 0.055247452 0.62739515
0.25128323 -0.06602002 1.1124102 0.3573239 0.04356044 -0.008862204 -0.1705133 0.20327684
0.13573629 0.17516299 -0.6104182 0.05347515 0.25219384 0.5322207 -0.018734075 -0.070170455
0.7057875 -0.27650124 -0.02863004 -0.25594664 0.12241718 0.23185408 0.39958856 -0.26972172
0.018763227 0.12692395 -0.8884199 0.2108792 0.063731365 -0.09031283 0.08002908 0.4293721
0.20819561 -0.13888848 -1.200207 -0.19069596 0.01909595 -0.21572949 -0.030585678 0.06437376
0.16471949 -0.05191825 -0.066264965 -0.5862421 0.086042255 -0.41823384 0.2691176 0.19485347
-0.421904 -0.03442906 0.96210533 0.42553633 -0.08344965 0.112094 0.26985675 0.06872711
-0.13671976 0.125121 1.1571982 -0.19548978 -0.11199916 -0.20533256 -0.32825446 0.41570625
-0.088204406 0.029572964 -0.70496887 0.6850196 0.020014757 -0.060720276 -0.10009546 -0.13277815
-0.2139375 0.24252704 0.87826 0.004585348 -0.056930922 -0.018051557 0.16747946 0.01489725
-0.1618805 0.1866704 0.50805354 -0.29125306 -0.22012281 -0.067063674 0.093395464 0.8738886
-0.5144787 0.028816616 -0.57979894 -0.12042835 -0.33891386 -0.13431756 -0.13648866 -0.17547655
-0.58452564 -0.073621504 -0.4354983 0.083083704 -0.16001682 0.119158395 -0.16611885 0.014834618
0.012102443 0.056207202 -1.1148376 0.04969659 -0.14724201 -0.05996578 -0.005750738 0.11010079
0.114614435 -0.40560433 -0.41562366 -0.07722369 -0.12424211 -0.1639928 -0.27869657 -0.7883262
0.16549951 -0.29525763 -0.87458575 0.0077678934 -0.064856336 -0.05588767 0.21564981 -0.296344
-0.45722225 -0.018598294 0.8627909 0.5176824 -0.10074215 -0.0865946 0.0419243 0.0071594818
-0.11105859 0.061258927 0.66268617 -0.10479011 0.25171727 -0.022938952 0.13525335 0.35664356
1.0301284 0.033046573 0.6152529 0.4271791 -0.07406618 -0.0065650097 0.14413173 -0.099746585
0.23072436 0.030401861 1.2656894 -0.2618364 -0.16380133 -0.09583492 0.25673267 0.110630214
0.14766847 0.20654564 -0.9802797 -0.23492487 -0.31196737 0.2430693 -0.48114875 -0.009894397
-0.023220003 0.020501815 -1.0248926 0.44243574 -0.043495014 0.024614593 -0.16101053 0.014277257
0.43796387 -0.1610986 -0.018183274 0.065320216 0.08833047 -0.18016681 -0.6194044 -0.847777
-0.6028882 0.1574776 -0.71729505 -0.003631659 -0.018895673 0.0566179 0.15999529 0.44802737
-0.025057705 0.10399935 -0.50713784 -1.0376595 0.008433832 0.04184211 -0.111872144 0.11448576
0.6440677 0.117762335 -0.4672203 -0.10555106 -0.05939188 0.109904185 0.09426355 -0.09934682
0.23284368 -0.06414639 -1.1456968 -0.11279439 -0.101956494 -0.12089098 -0.42503914 0.2123541

bias f4 [100]
00000000: 8c68 92be 147a b93e 3782 d2be 1e59 933e
00000010: fc19 22bd 0b55 963e e83d 313f 2f7e c33d
00000020: 8c82 0abf 3941 69bd dbab 903e 2cf9 073f
00000030: d2b6 e43d adb3 ecbe 524c 1ebf 0935 063f
00000040: 9824 043f 7b53 cd3e a0e3 5f3d d165 36be
00000050: 30df b93e ed97 3a3f b3eb fd3e 13f2 263e
00000060: 165a c9bd 8eeb 023d e245 16be 0781 61be
00000070: 920e 0e3d 165c 463f 21e5 df3e 3091 db3e
00000080: 0861 6bbe 1b0a 95be 95f4 bb3d 8e05 b43e
00000090: 66b9 b2be fb04 fc3c b25f 203e 066c d63e
000000a0: 49cc 773e 0961 83be e0c2 00bf d802 92be
000000b0: 5dae 8d3e 365f 00bf 2b65 c73e ba14 d43e
000000c0: e98e b73e 8948 ef3e 8c61 0f3f ac04 923e
000000d0: 6c68 bb3e 9a48 393e e691 27be 146d 0bbf
000000e0: 35ae 10be 4456 aebc 5b5c 02bf 8873 34bf
000000f0: 5f6b b2be f807 f93e 9d88 11bd 04bd fdbd
00000100: 1896 c0bc d6b3 b53e f09b c8be d4e5 45be
00000110: a19a 33be 01fa 0f3f f1d3 c5be 7761 363e
00000120: 450f 0dbf 8bfa 013f 6de9 09bf 8d49 a63d
00000130: 912c ffbd 6207 c7be da6f febe c866 f4be
00000140: 86c4 05bf b70c d1be e649 16bd 8c4c 903e
00000150: d35c cd3e d438 05bf f712 b43e c10f bfbd
00000160: 9e6f 653c c3ad 553f bbbd 0ebe 5247 cd3e
00000170: 881d 66bd 0bfd 703e 21fd 123f 87f2 cbbe
00000180: 86a0 6cbe 2c3d 8fbd 0a1e 3a3f f5a8 d3be
-0.28595388 0.3622595 -0.4111497 0.2877893 -0.039575562 0.29361758 0.69235086 0.09545552
-0.5410545 -0.056946967 0.28256115 0.5311458 0.11167683 -0.46230832 -0.61835206 0.52424675
0.5161834 0.40102753 0.05466044 -0.17812277 0.3630309 0.7288807 0.49593887 0.16303281
-0.09831636 0.031962924 -0.14675096 -0.22021876 0.034681864 0.7748426 0.437295 0.42884207
-0.22986233 -0.29109272 0.0917751 0.35160488 -0.34907073 0.030764094 0.15661505 0.4187929
0.24199022 -0.2565997 -0.50297356 -0.28517795 0.2767209 -0.5014528 0.38944373 0.41422063
0.3585122 0.46735027 0.5600822 0.2851919 0.36603105 0.18094102 -0.1636425 -0.54463315
-0.14128955 -0.021281369 -0.50922173 -0.70488787 -0.34847543 0.48638892 -0.035530675 -0.123895675
-0.02350907 0.35488766 -0.3918147 -0.19325954 -0.17539455 0.5624085 -0.3863826 0.17810617
-0.55101424 0.50772923 -0.53871804 0.081194974 -0.12459672 -0.3887282 -0.4969471 -0.47734666
-0.52252996 -0.40830013 -0.03669157 0.281834 0.40109882 -0.5203984 0.3517072 -0.09329177
0.014003662 0.83468264 -0.13939564 0.40093476 -0.056180507 0.23534028 0.57417494 -0.3983347
-0.2310811 -0.069940895 0.72702086 -0.4133984

weight f4 [100, 100]
00000000: 704a 1dbd 7d06 6f3d a5c0 18be 99c4 0f3d
00000010: 40ee bfbd f8d7 38bc 4553 503e c559 28bc
00000020: 85be 7bbe 10a9 febc d320 3bba 564e 143e
00000030: 65e5 db3b 511f 99bd 53bf 38be 66fe 573d
00000040: f236 5a3e 8c09 133d 714e 7d3c 4908 04bd
00000050: ee73 22bb 16b4 343e d6c2 2f3e 8783 473c
00000060: 2bb1 37bc 0e2f f13c b69b 2c3c 387f cbbd
00000070: 1c75 e73c c90e f53c 99a1 a03d d442 1c3c
00000080: 403d f5bc 3d5f 8cbd bc5d 01bd 4757 7dbc
00000090: b513 cabd a5d5 0d3e f811 283c 208d 44bd
000000a0: 365f a83d af27 f439 eef9 3a3c 027e d7bc
000000b0: f227 fd3a acf6 31be 6f03 2a3d bceb b13d
000000c0: 1de2 e73c f745 a73d 6b2e 9bbb 0597 ed3c
000000d0: 7cbd 96bc 8d75 913b 021e 4f3c c045 babc
000000e0: 01be f03c 9497 2e3c 8467 aebd 0160 2ebe
000000f0: 8933 fdbc 4e2c 81bc 66a6 713c 9833 02bd
00000100: 12c7 ac3c 9f3b 563e 452f 48bd f7d2 50be
00000110: 8f22 7abe d3e6 f13d 57dd 2dbe 652d 603c
00000120: de5c 0dbe 6615 413e 9102 91be 2aae 90bc
00000130: 2c38 233c f01b 35be 5ec4 61bd feed 24bd
00000140: 4abd 4ebe 1b65 2e3c 8a87 073e c134 9aba
00000150: c161 a63d 891b 7fbd 7c52 df3d e33a ba3d
00000160: 0041 df3d 32a5 d93d 1497 e7bc dcca 9bbc
00000170: b522 f2b9 5915 573e 9089 d53d 6615 01be
00000180: fbb0 45bc fad4 383c ea10 6c3d 6cd6 a2bd
00000190: 9494 f93d 7575 fc3c f574 10bd 6bdd 253d
000001a0: 2871 b43c a3dc 09bd 01e3 89bd 2085 a83d
000001b0: ad6d c6bd c9e7 943b 25f0 173e 82d0 553c
000001c0: e362 093e 02a6 bfbd e332 973c fce3 9c3d
000001d0: 845e 983d b40b a13b c273 83bd 2e8f 6f3d
000001e0: f67a 24bb 9654 913c df85 b83d c1fd 883d
000001f0: d998 573e 2382 3abd 7789 a7be 55d0 a43d
00000200: b858 19be c112 853e 9948 9d3d b529 82bc
00000210: 91e8 00be 50fb 85bd 5465 e1bc 80e9 cc3d
00000220: 6e39 b9be b1f0 363c 1695 4e3c d7a5 48be
00000230: c3bf 983d 20c0 a3bd b458 833d 1ed8 a4be
00000240: 3866 003e afe0 f8bc 9930 40bd f63b c73d
00000250: 2818 61be e8bb af3c 9a7a 063e b16b 193d
00000260: 86f5 ccbd 5e7d 733d a469 7ebd b701 96be
00000270: 3d01 613c 9613 a2bd 456c 3fbe 5286 53be
00000280: d65e d03e 2bfd f9bc c1f1 ad3d b442 b33b
00000290: f101 c03c a4ec d8b8 6dd0 083e 94fa 84bd
000002a0: 52e3 d6bd e613 a33e 4ae2 543d 4b97 293c
000002b0: 23df 0ebd de6f 3d3e d2b3 ffbd c778 333d
000002c0: 186b 093b de48 2abe a5bc 0ebd 075b 0fbd
000002d0: 9d55 95bd 2967 82bc c6c3 543d 094d 22bc
000002e0: f6ab 213e 9dae 6ebd e037 4bbe eb86 883d
000002f0: 9f04 d53d 935d 8abc 2e7f e1bd 8dc7 0b3d
00000300: 2c8e 27bd 2cff 5f3d 31b6 153e 6a61 4dbd
00000310: ff6c b03e 0d62 6cbe 7503 753e 276c 2f3c
00000320: aa44 16bf 45d1 893e b8bb 013d 31cf 09be
00000330: 17ee 4b3e e57b 983e 63c1 c9bd 7c8c 6ebe
00000340: 4f8a 86be 32f5 93be 9415 0ebe f39c 5c3e
00000350: 3063 92bd 3d79 91bd 2e08 85be 3eeb 123e
00000360: fb4c 353e 9dee a33e 2296 5e3e cb2e 37be
00000370: 8324 2a3e 9773 f1bd 4ae2 36bb 7a12 713d
00000380: cb5a ebbc 380d 26be 5db1 9f3c b3e0 c3bd
00000390: 04ea 403f 9511 febe 847f 12be 8bb5 bb3d
000003a0: a982 3bbd d9bf 84bd 1e29 e53b 7922 b33e
000003b0: c167 163d c1df 03be 8e72 13bd a7ec bd3c
000003c0: 1669 6a3e b4a5 8a3c 97aa 8cbe 7987 623d
000003d0: 3f01 093e 7f96 75be 7b08 e03d c1d0 4b3d
000003e0: e457 cc3e 9652 ecbc a9ef d2bd 74a9 533e
000003f0: ac80 833e 77d9 973d 8f62 4f3e 49c2 1b3e
-0.038401067 0.058355797 -0.14917238 0.0350996 -0.093716145 -0.01128196 0.20344265 -0.010275309
-0.24584396 -0.031086475 -0.0007138375 0.14483008 0.0067106956 -0.07476676 -0.18041734 0.052732848
0.21310022 0.035897776 0.015460596 -0.032234464 -0.0024788338 0.17646822 0.17164168 0.012177355
-0.011211674 0.029441383 0.010535171 -0.099363744 0.028254084 0.029914277 0.07843322 0.009537417
-0.029936433 -0.06854103 -0.031583533 -0.015462703 -0.0986704 0.1385103 0.01025819 -0.04798615
0.08221285 0.00046568873 0.011412127 -0.026305202 0.0019314273 -0.17379254 0.04150718 0.08687541
0.028306061 0.081676416 -0.004735758 0.029002676 -0.0184009 0.004439062 0.012641432 -0.022738338
0.029387476 0.010656256 -0.08515838 -0.1702881 -0.030908363 -0.015768196 0.014749145 -0.031787485
0.021091018 0.20921181 -0.048873205 -0.20392977 -0.24427246 0.11811604 -0.16978966 0.013682698
-0.13804957 0.18855819 -0.2832227 -0.017661173 0.009962123 -0.17686439 -0.05511891 -0.04026603
-0.20189396 0.010644223 0.13235298 -0.001176499 0.08124114 -0.06228212 0.109044045 0.09093263
0.1090107 0.10627212 -0.028270282 -0.01901763 -0.00046183696 0.21004237 0.104266286 -0.12605819
-0.012066121 0.011281246 0.057633318 -0.07951054 0.12186542 0.030817727 -0.03526779 0.040494364
0.022026613 -0.03365768 -0.06732751 0.082285166 -0.09688888 0.0045442325 0.14837702 0.0130502
0.13416629 -0.09357835 0.018456882 0.07660672 0.074399024 0.004914725 -0.064185634 0.058486156
-0.0025097704 0.017740529 0.09009909 0.06689025 0.210544 -0.045534264 -0.32722065 0.08047549
-0.1497525 0.2599087 0.076798625 -0.015889028 -0.12588717 -0.06542075 -0.027514137 0.10005474
-0.36176628 0.011165784 0.012608787 -0.19594513 0.07458451 -0.07995629 0.06413403 -0.32196134
0.12538993 -0.030380575 -0.046921346 0.097282335 -0.21981871 0.021451905 0.13132706 0.03745622
-0.100077674 0.05944573 -0.062112466 -0.29298183 0.013733205 -0.07913892 -0.18693645 -0.20656708
0.40697354 -0.030516228 0.084933765 0.005470598 0.023438426 -0.000103437604 0.13360758 -0.064931065
-0.10492577 0.3185112 0.05197362 0.010351012 -0.03488077 0.18499705 -0.1248547 0.043816354
0.0020968374 -0.16629359 -0.034847874 -0.03499892 -0.0729172 -0.015918331 0.051944517 -0.009906062
0.15788254 -0.058271993 -0.19845533 0.066663586 0.10401272 -0.016890323 -0.11010586 0.034125853
-0.04090707 0.05468671 0.14620282 -0.05014173 0.34458157 -0.23084278 0.239271 0.010706938
-0.58698523 0.26917472 0.031673163 -0.13457943 0.19915043 0.29782024 -0.09851339 -0.23295778
-0.26277396 -0.28898007 -0.13875419 0.21544246 -0.07147825 -0.071032025 -0.25982803 0.1434755
0.17705147 0.32017985 0.21736959 -0.17888944 0.1661549 -0.11789625 -0.0027905875 0.05885551
-0.028729817 -0.1621598 0.019493753 -0.09564342 0.7535708 -0.4962279 -0.14306456 0.09165486
-0.045778904 -0.064819045 0.006993427 0.34987238 0.03672004 -0.12878324 -0.03599792 0.023184134
0.2289165 0.016924717 -0.274739 0.055304978 0.13379382 -0.23983191 0.109391175 0.04975963
0.39910805 -0.028847974 -0.10299618 0.2067011 0.25684106 0.07414525 0.20252441 0.15210833

bias f4 [100]
00000000: 646f 8b3e 8187 963c a2ca e53d 1cea 10be
00000010: bfb4 503d 6dde 9b3e f2a9 e23d 4f01 27bd
00000020: 3188 c5bd 0063 1c3e c018 cdbd 1d2a 9d3d
00000030: 9f95 ab3d b58c c23d 17f4 09be 803a 423e
00000040: 94f4 483e 4ac4 243e 3844 a83b ef3b e83d
00000050: aa89 073e 6410 b33c 50e0 273b 9073 53bd
00000060: 4794 213e e88d 07be 7bca 44be 0a7a 05be
00000070: 8b34 03be f6d1 92bd af8f f4bd 7e7a 42be
00000080: 25cf 27bd 9915 b93d d0b5 4ebe 84c4 813e
00000090: ae70 a03d 3867 25be 5ee7 37be dd0e 50bc
000000a0: df0a 2fbe 5784 cc3d ba22 3bbd 9dbc 14be
000000b0: e387 cb3d d705 813c 33ec 573d b390 5abe
000000c0: ba30 513d 2fad ff3d 5ca9 78bd a3af 3abd
000000d0: 4f63 98bd d6ca e83c 797b 173e c72a a9bd
000000e0: df9a 2d3d 44ae cdbd 02de adba 8cdc 013e
000000f0: 21d1 86be 39d9 8cbd 42e2 fc3d 9b18 17be
00000100: 6b5b 57be 0b40 8a3d 4995 f9bc 66a0 0fbd
00000110: a9a2 f0bc e8fd babd 7740 1d3e 241e 04be
00000120: 5d46 c0bd 3c40 c73d a3b0 35bd 035a efbd
00000130: e948 553d f3ae 38bc caf0 0fbe dd1e 77bd
00000140: b6b1 ab3c 1cd0 263d bfb5 633e 18c1 1e3e
00000150: d3a6 143e d2f3 2ebe f499 0cbe abd0 0cbe
00000160: 0c3f 153d 6dca e0bc f95d 90bd 86aa 4c3b
00000170: 6499 333e 8e70 46be bbb4 d43d 4cb9 543c
00000180: df2b 553d f21b 883d eab2 30bd 3d28 223e
0.27233422 0.01837516 0.1122029 -0.14151806 0.050953623 0.30443135 0.11067571 -0.040772732
-0.09645117 0.1527214 -0.10014486 0.07674048 0.08378147 0.09499494 -0.13472019 0.18967628
0.19624549 0.16090503 0.0051350854 0.113395564 0.13236108 0.021858402 0.0025615878 -0.05162388
0.1577922 -0.13237727 -0.19217865 -0.13034835 -0.12813012 -0.07168953 -0.11941468 -0.1899204
-0.040969033 0.090373226 -0.20186543 0.25345242 0.07833992 -0.16152656 -0.17959353 -0.012698856
-0.1709399 0.09986179 -0.045687415 -0.14525075 0.09938028 0.015749855 0.05271549 -0.21344261
0.05107186 0.12484204 -0.06070839 -0.045577656 -0.074408166 0.028417032 0.14793195 -0.08260112
0.042384025 -0.10043004 -0.0013265016 0.12681788 -0.26331428 -0.068773694 0.12347843 -0.1475548
-0.21030967 0.067504965 -0.030466693 -0.035065077 -0.029374437 -0.0913046 0.15356623 -0.12902123
-0.09388421 0.097290486 -0.044357907 -0.1168709 0.052071486 -0.01127218 -0.14056697 -0.060332168
0.020958763 0.040725812 0.222373 0.15503347 0.14516763 -0.17085198 -0.13730603 -0.13751476
0.03643708 -0.027440274 -0.07049174 0.003122957 0.17538983 -0.19378874 0.10386034 0.012983631
0.05204379 0.06645955 -0.043139376 0.15835662

weight f4 [100, 100]
00000000: 7a09 3036 3e24 2336 d295 9236 5751 5c3e
00000010: 2ef0 e837 d374 9536 9f8a 543d b7ae c235
00000020: b26e 5eb6 caaa 8636 a524 80b5 15ed edbe
00000030: 3691 80b6 6031 cfbd b4a1 7f35 a59d f6b5
00000040: 89b2 51b8 ffa4 1fbd 8d47 2abe 971f 88bf
00000050: 468b e1be e016 f33b 8f16 62b6 2693 6fb6
00000060: 8367 1bbd 230f 8236 90da 003f 580b 5239
00000070: 55c0 1eb9 4f34 ddb8 2fdf f539 6812 093f
00000080: 4f59 8eb6 01b2 80b3 20b1 2bb6 ba39 57be
00000090: 9a5c a736 c084 5336 b105 37b5 38c0 60b6
000000a0: 7b55 9937 00a9 72be 0650 85b6 3b46 143e
000000b0: 3d6f 463b 2ad3 4dbf 0387 4636 3649 77b6
000000c0: ae70 96b6 0696 44b8 3349 81b8 fa80 9536
000000d0: 8e2a 013d d5b1 ccbd 0e42 5cb6 9a72 80bb
000000e0: d9da 23bf d8c8 2cb8 e93d 9736 8cfa f535
000000f0: 7d61 8536 d57b bc3e 0afd 01be e384 6036
00000100: e1ad 0db9 3d0c e6bf 9817 6b36 2e0e 82b6
00000110: 8eba 2e36 b4a7 cdb7 22e0 e635 89db 3836
00000120: d0ec a335 a8a3 78b5 dcc7 8a36 c719 eeb9
00000130: 8a95 48b5 634f 7136 bd76 b43d 5850 953d
00000140: bae7 7fb6 41aa 30b6 bb6e 0ab6 95a8 00c0
00000150: 28e4 7136 ccd8 c83d 5848 5439 3e84 b439
00000160: 97d7 65b5 0971 9634 69e9 5838 8161 5a36
00000170: 46c7 4cb9 1f79 043e 2f43 a0bb 67ae e8b5
00000180: d789 f2bd 7b12 0db7 9838 83b6 3bdb 78bd
00000190: a51b 3d3b 07a8 82bd ecbb 01be 313c c13c
000001a0: c71d 463b 4d3d 0abd 14ff 18bd 7344 813d
000001b0: a2af 3cbb 7542 38ba fced 983a d3df af3b
000001c0: d0a2 7dbd bb48 4abd 1515 8bb9 1d2b 67be
000001d0: 6f43 0bbe 68d6 f9bc 0b4a 2539 2289 a7be
000001e0: e09b 82bd 22cf 6fbe c69a f13a 6f42 c5ba
000001f0: 2f4e 3e3b 74e3 643e 25f6 103e d67b 69bc
00000200: 06ef c23c 1a5a 43bb 919f a13d 4bb6 2e3c
00000210: 51a4 10be badd 4abc bf7d 5cbb 3b25 43be
00000220: e716 22be 4d22 d33b b50f 20bb 44c9 a4ba
00000230: 0e7f ad3c 7075 42be 4dab 3db9 de20 beb8
00000240: db5b 3b3b 96da 85be 46e5 ebbd 8cbc 1f3e
00000250: c956 433c 1ac0 e73a 83c6 f8ba 921d a4bb
00000260: 11f6 67bb c182 02bd 2a2e ebbb 71a4 3cbb
00000270: b83c bcbd 0b73 57bd 671e 53b9 57b9 013c
00000280: 45c0 ff3d 8253 43bb 2cb1 d2bd 4f9f 30bb
00000290: 0598 80bc 9856 81be 6bcc 543c bbbf 533b
000002a0: 485f b33d f86a 27bb f244 a9bd 896b 02bb
000002b0: 961f 9f3d d318 86bd e43c 323d d8f8 bc3c
000002c0: 970c 6e3d 339f a53b af97 35bb 7778 103e
000002d0: ef7f 08be 6650 3bbb 708f 193d 92af eebe
000002e0: 55c1 99bd 5bb2 8a3d 99ec 8e3d d829 0d3c
000002f0: 75e1 5bbb 210d 8abc 8871 aabc 41f8 cd3d
00000300: 925d 643b a0b0 cd3e 2cf2 463b d37e b0bb
00000310: fe1b 5cbd d133 23bd 58e9 edba bf52 3dbe
00000320: bcf8 63be 56c6 a7bc df4b 1f3e b2c3 583d
00000330: 0f82 38be 4baa 0d3e f9d5 863c adec e0ba
00000340: 86c1 143e 855b 7b3e 7e1f 563e ffce 9e3d
00000350: 4f42 ebbc 6e22 a2bd 896d 3ebe 42d7 64bc
00000360: cfe6 92be 5930 48be ce3c ebbd a7e1 20be
00000370: f247 66be 6bea 38bb c340 35bd 770b 1b3e
00000380: edcf 5dbe f508 7a3e 2ec5 713e 757d c43d
00000390: dbff 3d3e 1f22 383e 6105 e73d 5e87 1a3e
000003a0: da1e c9bd f6b2 2dbe 1d84 52bc f90e d3bd
000003b0: 5865 afbc 435c 4b3c 5c88 2d3e 9a1f 173e
000003c0: 6f88 e63c 358e 9cbe 0adb 92bd 00be 92bd
000003d0: e371 03be 287c e8bd a83f d5bd 62a0 483d
000003e0: 79e1 b63d 9fc9 a83b f432 4ebe 357c b03d
000003f0: 265f b7bc 0e06 a6be f7d8 5bbc e17a 1fbc
2.623156e-06 2.4309988e-06 4.3685804e-06 0.21515404 2.7768398e-05 4.454146e-06 0.051890012 1.4504975e-06
-3.314501e-06 4.0133937e-06 -9.547408e-07 -0.46469942 -3.831602e-06 -0.101168394 9.523021e-07 -1.8374309e-06
-4.9995757e-05 -0.038975712 -0.16628857 -1.063464 -0.4405157 0.0074184984 -3.3689755e-06 -3.5699427e-06
-0.037940513 3.876064e-06 0.503335 0.00020031387 -0.00015139703 -0.000105478444 0.00046896326 0.5354371
-4.2423267e-06 -5.992843e-08 -2.5584086e-06 -0.21018115 4.987768e-06 3.151872e-06 -6.8181095e-07 -3.3490487e-06
1.8278826e-05 -0.23697281 -3.973025e-06 0.14479916 0.0030278706 -0.80400336 2.9582886e-06 -3.6848483e-06
-4.483466e-06 -4.686976e-05 -6.164834e-05 4.455561e-06 0.031534724 -0.09994856 -3.2821004e-06 -0.0039199116
-0.6400581 -4.1195046e-05 4.507358e-06 1.8326841e-06 3.975058e-06 0.36813226 -0.12694183 3.3455951e-06
-0.00013511583 -1.7972485 3.5031462e-06 -3.8759526e-06 2.603661e-06 -2.4515997e-05 1.7201567e-06 2.7545923e-06
1.2213368e-06 -9.262535e-07 4.135987e-06 -0.00045414103 -7.4723414e-07 3.5958008e-06 0.0881171 0.07290715
-3.8132844e-06 -2.6325145e-06 -2.0628056e-06 -2.0102894 3.6044603e-06 0.09806976 0.00020244846 0.00034430803
-8.562287e-07 2.802192e-07 5.1715793e-05 3.2541286e-06 -0.00019529191 0.12936829 -0.0048908214 -1.7336105e-06
-0.11842697 -8.408558e-06 -3.9106926e-06 -0.06075595 0.0028855589 -0.06379705 -0.12669343 0.023588272
0.003023015 -0.033749867 -0.037352636 0.06311884 -0.0028791209 -0.0007028946 0.0011667605 0.005367258
-0.06192285 -0.049385767 -0.00026527853 -0.2257504 -0.13599943 -0.030497745 0.0001576321 -0.32721812
-0.06377387 -0.23418859 0.0018432967 -0.0015049706 0.00290383 0.22352391 0.14156397 -0.014250716
0.023795616 -0.0029808343 0.07891763 0.010663579 -0.14125182 -0.012381965 -0.0033644286 -0.19057171
-0.15829049 0.006443298 -0.0024423425 -0.0012572189 0.021178748 -0.18990111 -0.00018088259 -9.066028e-05
0.0028588686 -0.2614333 -0.1151834 0.15599269 0.011922547 0.0017681152 -0.001898006 -0.005008408
-0.003539447 -0.031862978 -0.007177134 -0.0028784538 -0.09191269 -0.052599948 -0.00020133854 0.007917724
0.124878444 -0.0029804413 -0.10287699 -0.0026950424 -0.015697489 -0.25261378 0.01298819 0.0032310325
0.08758408 -0.0025545936 -0.082651034 -0.0019900522 0.077696964 -0.065477036 0.0435151 0.023067877
0.058117475 0.0050543784 -0.0027708819 0.14108454 -0.13330053 -0.0028581857 0.03749031 -0.46618325
-0.07507578 0.067723 0.06978721 0.008615933 -0.003355113 -0.016851963 -0.020806089 0.10057116
0.0034845811 0.40173817 0.0030356748 -0.0053862124 -0.053737633 -0.039844338 -0.0018151207 -0.18488596
-0.22262853 -0.020480316 0.15556286 0.052921005 -0.18018363 0.13834493 0.016459452 -0.0017160379
0.14526948 0.2454663 0.20910451 0.07754325 -0.028718142 -0.07916723 -0.18596472 -0.013967337
-0.28691718 -0.19549693 -0.11486207 -0.1571108 -0.22488382 -0.0028215896 -0.044251215 0.15141092
-0.21661349 0.2441748 0.23610374 0.095942415 0.18554632 0.17981766 0.11280323 0.15090701
-0.098203376 -0.169628 -0.012848881 -0.1030559 -0.02141063 0.012412134 0.16946548 0.14758149
0.028141228 -0.30577245 -0.07170685 -0.07165146 -0.12836413 -0.11351806 -0.10412532 0.048981078
0.08929724 0.005150988 -0.20136625 0.086174406 -0.022384237 -0.32426494 -0.013418428 -0.009733886

bias f4 [100]
00000000: fea2 d9b4 9db9 1bbd 2499 94bc 13d5 0b3d
00000010: d774 97bb e724 ee3d 1699 3b3b bcb1 d23d
00000020: 3bfd 953d a529 083d 96f5 0a3e e849 e53c
00000030: f452 bc3c 22cc 43bd b7e3 9d3b 20ef 913d
00000040: 425d 1c3e e9ef 80bd b1b1 07bb cb5b 423c
00000050: 5245 8d37 4f23 3d3c 371e a7bd cf86 ee3b
00000060: 0e73 853d c046 d5bd 9e1e 7abd 0c5f 54ba
00000070: 968d 2c3d a6ca 293c a2e4 353c f9a9 9ebd
00000080: 0e53 80bd 053b e33d 17e7 a337 6085 9cbc
00000090: 0bd0 2fbd a316 42be 4f23 7ebe f3a7 0abb
000000a0: e528 e73b 3621 53be 44a8 5ab8 83c9 9b3b
000000b0: baa8 343c bf2b 1c3d 8f26 2e3a db41 86be
000000c0: a726 693d 38fc 75ba d91b e83c a6a5 27bd
000000d0: db2b 0f3c 6778 8bbc 4e20 33bc 792a 67bc
000000e0: 59bb 383c e328 29be b4d4 cfbd 5631 313b
000000f0: 7c5f 36bc 48ca 1f3d ea8f 0cba 5421 1a3b
00000100: e200 973d c39f 213e cd74 3239 3631 fbbd
00000110: f237 edb7 d305 033c 3040 a33d d323 1cbe
00000120: f728 dc3b 6edc 7e3c 2f4d 04bd 3ccb 163c
00000130: 93bc 983d b8ba 0cbe 07c9 78bd 198b df3c
00000140: 11dc 893d 82f5 83bb 39fa 15be 5d5b f63a
00000150: 6975 243d 4954 cfbc 69fd ce3c 9f1f 313e
00000160: 7750 543a 0eeb 4bbd 7f95 dbba 9663 863d
00000170: 4e60 3e3d 679c 953b 4743 bab9 4eff 76bb
00000180: 9f96 6ebd 7152 2bbe 298a a73c 7a4f fc3c
-4.0537992e-07 -0.03801881 -0.01813943 0.03413875 -0.0046220827 0.11628132 0.0028625182 0.102878064
0.073236905 0.03324284 0.13570246 0.027989343 0.022988774 -0.047802098 0.0048184055 0.071256876
0.1526995 -0.06295759 -0.0020705278 0.011862705 1.684079e-05 0.011544063 -0.0816006 0.007279254
0.065160856 -0.10413885 -0.061064355 -0.00081013213 0.042127214 0.010363257 0.011101874 -0.077472635
-0.062658414 0.110952415 1.9538724e-05 -0.019106567 -0.042923015 -0.18953948 -0.24818157 -0.0021157234
0.0070544356 -0.20618138 -5.213196e-05 0.0047542467 0.011026556 0.038127657 0.0006643319 -0.2622212
0.056921627 -0.0009383592 0.028333591 -0.04092946 0.008738483 -0.017025186 -0.010932995 -0.014109247
0.011275136 -0.16519503 -0.10147992 0.0027037463 -0.011131164 0.03901127 -0.0005362021 0.00235184
0.07373215 0.157836 0.00017018915 -0.122652456 -2.8278653e-05 0.007996994 0.07971227 -0.15248041
0.0067187506 0.015555484 -0.03230017 0.009203728 0.07457843 -0.13743103 -0.06073859 0.027288007
0.067314275 -0.0040270695 -0.14646234 0.0018795539 0.040151034 -0.025308745 0.02526732 0.17297219
0.00080991484 -0.049784712 -0.0016752927 0.06561963 0.046478562 0.0045657638 -0.0003552681 -0.0037688795
-0.058249112 -0.16730668 0.020451622 0.030799616

weight f4 [19, 100]
00000000: 4298 0ac0 2741 61bf a086 8bbf 0ff8 de3f
00000010: 2b3e d3bf 1c32 c3bf 55e9 b7bf 7f33 b83f
00000020: b0a5 8b3f 565d e93f 72e7 c73f f322 be3f
00000030: cf6c cc3f 01e4 dcbf e752 ce3f 5d7b b83f
00000040: d32a 993f da0a a3bf 5f0a a2bf bcf4 bd3f
00000050: 2934 f3bf 86aa eb3f 5df6 cfbf a9f3 b93f
00000060: 485f 853f df61 0ec0 22f4 10c0 5f07 bfbf
00000070: 2cce d53f 7bbe 05bf 9bb2 a93f 3330 513f
00000080: 7690 5c3c c41a 67bf e4d0 eb3f cdbb b0bf
00000090: ca3c b9bf ccd5 89bf 9efe b33f bf96 bdbf
000000a0: 0633 b53f 32bd c9bf 2552 c83f f764 9b3f
000000b0: 242f bb3f d327 ad3f aea7 46bf 044b cbbf
000000c0: 5dc3 b43f c999 da3f 13eb a0bf b3f8 b3bf
000000d0: f8cb 80bf 9f0f b9bf d6b9 b03f a474 d5bf
000000e0: 0092 933f 6541 f9bf 5680 8fbf 01cc f73f
000000f0: 5812 83bf 944e 69bf 10d1 e53f 287a a9bf
00000100: 19c6 ee3f cf8e a13f 324c ccbf 7682 66bf
00000110: 0849 eebf 8a3a acbf b225 d73f 46c4 f4bf
00000120: b57c a43f 47b3 b03f 7e89 b6bf 233c c7bf
00000130: 05ad 00c0 629e b4bf 9866 d3bf 9497 c23f
00000140: 16ae ca3f 136b d6bf df21 d0bf 9022 8fbf
00000150: 6e4c de3f 5337 38bf f664 0840 906c d4bf
00000160: b097 cabf a5f5 afbf ad35 c53f 26b8 7c3f
00000170: 3e8d 9fbf 6140 b63f d88a fdbf a469 8bbf
00000180: 65e3 c6bf 9739 c4bf 8683 d8bf 21ea a73f
00000190: 9247 673e b27f 363f 48a9 5ebf d151 213f
000001a0: d194 cabd 1c13 f0be 93ab 54bf 63d4 09be
000001b0: f5ea 9fbf 2374 febd 8704 be3e 6c75 e6bd
000001c0: f65e ae3e 0d74 7b3f 6cd8 1bbe 4e13 bc3d
000001d0: 5ec3 273f f913 5f3d 4cbb 2cbe 7c3d 393d
000001e0: 67b9 aebe 8afb f6be a997 133f 3b14 483e
000001f0: c492 4f3e e36f 4fbe 082d 123e ca81 163f
00000200: fde5 fa3d 7d34 03c0 f92c 06be 7752 3c3f
00000210: e0ca a03f 2c25 013f 0218 ddbe 7589 0c3d
00000220: 8f5f 7ebd 8d66 f9be 9a4e 243d 0351 debd
00000230: d8f8 9d3c ac41 03bd 1f9a 873e b55e 6fbe
00000240: 782e 893f f95e e9be 0d10 9cbd 41f3 20bd
00000250: c4d1 db3e 141a 963e 1a52 3fbf b4c7 13bf
00000260: 87e7 1abe 0e95 1b3e a121 abbc df40 d4bd
00000270: 4caa 463e 299b 963e 6618 8a3f 37e7 28bf
00000280: a981 97bd 4434 c8bd 3efb e8be e7a0 3bbf
00000290: eede eb3d a0d3 013e 647b b93e babf 013f
000002a0: 48c3 cebe 93c0 dabe 7f8f 9a3e 9632 8b3d
000002b0: 0265 b53d 689c 1cbf f43b 8b3e 420b d9be
000002c0: 4e21 a43e 966b 8b3c 82db 053f f47e 85be
000002d0: 2474 2bbe aa12 0c3f 851e 8abd 9e0c acbc
000002e0: f166 3ebd 578d 12bf 0726 a7be 0b1e f1be
000002f0: 4c0a 6fbf ac78 22be a0f7 8d3e a8d6 05be
00000300: 3d6f b33e 58f6 f7be 0b28 133f 1ace abbf
00000310: 21a5 89be 7993 de3d b8f1 9f3e 51a5 95bf
00000320: 830d 8fbb ecef b3bb d37e a1bb f0a1 903b
00000330: 295d c6bb 00b2 9b3b 0786 a0bb 13d8 c73b
00000340: 0d29 a03b 528e b03b e1a1 a63b 16a6 c73b
00000350: f9cc 8f3b 8aed aebb b072 aa3b fd34 33bc
00000360: 313e 4b3b 84df a0bb ec1f 9fbb 0fe6 c03b
00000370: ba18 9fbb 2a47 e13b d3cb c83b 2df6 8e3b
00000380: ae63 a53b 817a c6bb 0975 083c ecd9 90bb
00000390: 5499 8c3b 8080 c5bb 1bcf ba3b 42ca 8bbb
000003a0: 6739 dabc 12be 493c d747 a73b af1d b0bb
000003b0: 69c1 c7bb a02a 8fbb 074f 70bc 6537 a1bb
000003c0: de64 a43b d314 a43b 47da a63b 960e a03b
000003d0: b218 b23b 80f9 993b 7d19 8d3b 6696 a83b
000003e0: 7b36 a23b 9f7a 903b 232e a3bb c0bf a1bb
000003f0: 14b4 bfbb 8825 c5bb 3bdc c03b b3ac c6bb
-2.165543 -0.8799004 -1.0900459 1.7419451 -1.6503347 -1.5249667 -1.4368082 1.4390715
1.0909939 1.8231609 1.5617507 1.4854416 1.5970706 -1.7257081 1.611905 1.4412647
1.1966194 -1.2737687 -1.2659415 1.4840312 -1.9000293 1.8411415 -1.6247059 1.4527484
1.0419703 -2.2247236 -2.2649007 -1.4924124 1.6703544 -0.52243775 1.3257631 0.8171417
0.013462177 -0.90275216 1.8423123 -1.3807312 -1.4471676 -1.0768371 1.4062078 -1.4811629
1.4156196 -1.5760863 1.5650069 1.2140187 1.4623761 1.3527778 -0.7759961 -1.5882268
1.412212 1.7078182 -1.2571739 -1.4060272 -1.0062246 -1.4457892 1.3806713 -1.6676221
1.1528931 -1.9473082 -1.121104 1.9359132 -1.0239973 -0.91135526 1.7954426 -1.3240404
1.8654205 1.2621707 -1.5960753 -0.9004282 -1.8616037 -1.3455365 1.6808379 -1.9122398
1.2850558 1.3804711 -1.4260709 -1.5565227 -2.0105603 -1.4110835 -1.6515684 1.5202508
1.5834377 -1.6751426 -1.6260337 -1.1182423 1.7367074 -0.7195942 2.1311622 -1.6595631
-1.5827541 -1.374684 1.5407006 0.9871849 -1.2464979 1.4238397 -1.9807997 -1.0891614
-1.5538145 -1.5330075 -1.6915138 1.3118325 0.22585896 0.712886 -0.8697705 0.63015467
-0.09891666 -0.4688958 -0.830743 -0.13459925 -1.2493578 -0.12424495 0.3711283 -0.11252865
0.34056824 0.98223954 -0.15219277 0.091833696 0.6553248 0.054462407 -0.16868323 0.04522465
-0.34125826 -0.48238784 0.5765329 0.19538967 0.2027083 -0.20257525 0.1427499 0.5879179
0.12250898 -2.0500786 -0.13103093 0.7356333 1.2561913 0.50447345 -0.4318238 0.034310777
-0.06210285 -0.48711053 0.040114023 -0.108552955 0.019283697 -0.03204505 0.26484773 -0.23375972
1.0717306 -0.4558027 -0.07620249 -0.039294485 0.42933476 0.2931677 -0.7473465 -0.577266
-0.15127383 0.15193579 -0.020890059 -0.10363936 0.194009 0.29415253 1.0788696 -0.65977806
-0.073977776 -0.09775594 -0.45504183 -0.7329239 0.1151713 0.12678385 0.36226952 0.50683177
-0.40383363 -0.42725047 0.30187604 0.06796758 0.08857156 -0.61176157 0.27194178 -0.42391402
0.3205666 0.017019074 0.5228807 -0.2607342 -0.16743523 0.5471598 -0.067441024 -0.02100211
-0.04648489 -0.5724692 -0.326462 -0.47093233 -0.93375087 -0.15866345 0.27727985 -0.13070166
0.35045806 -0.48430133 0.57482976 -1.3422272 -0.26883796 0.10867972 0.31239104 -1.1691076
-0.0043656244 -0.0054912474 -0.0049284487 0.0044138357 -0.006053586 0.004751444 -0.00489879 0.006098756
0.004887706 0.0053880597 0.0050852154 0.006092797 0.0043884483 -0.0053383755 0.00520166 -0.010937926
0.003101241 -0.0049094576 -0.0048561003 0.0058868 -0.0048552426 0.0068749385 0.0061278134 0.0043628425
0.005047283 -0.006057084 0.008328685 -0.0044205096 0.004290739 -0.0060272813 0.0057009584 -0.0042660544
-0.0266387 0.012313383 0.0051049995 -0.0053746323 -0.0060960543 -0.004369095 -0.014667279 -0.0049199336
0.005016907 0.0050073653 0.0050919387 0.0048845513 0.005435073 0.004698932 0.004306017 0.005144882
0.0049503422 0.004409149 -0.004979865 -0.0049361885 -0.0058503244 -0.006016437 0.0058856285 -0.006063068

bias f4 [19]
00000000: d6a9 28b6 3723 14bd d203 ac3c e3e7 c53c
00000010: 8c33 1636 fb2e 56b6 7826 acb5 5c26 fc35
00000020: a1c2 3336 d58b 91b5 49de bfb5 4844 8635
00000030: 5eb9 92b6 4fb5 9236 7056 ab35 7072 3b36
00000040: e05f f734 f559 5c35 8868 b135
-2.5132808e-06 -0.036166396 0.020997915 0.024158424 2.2381746e-06 -3.1915831e-06 -1.2826195e-06 1.8786627e-06
2.6786367e-06 -1.0844038e-06 -1.4295302e-06 1.000365e-06 -4.3727186e-06 4.372246e-06 1.276565e-06 2.7931783e-06
4.6077093e-07 8.208729e-07 1.321795e-06
